HW2/model300epoch_model1.pth (torch, 79567 bytes, 7 tensors)

model.0.weight f4 [256, 8]
-0.0032909077 0.18240027 -0.28494504 -0.25185746 -0.13774262 0.10095138 0.0035832443 0.30726433
-0.032503784 0.09627588 -0.10640421 -0.07038288 -0.33783236 -0.23156033 -0.14443935 0.0012030767
0.13985546 0.20935264 -0.23498636 -0.15553196 0.13136649 0.29244256 -0.06972658 0.291111
-0.05921612 0.034515146 0.31974214 -0.32620364 -0.22575815 -0.085250445 -0.13383451 0.3249797
-0.23271024 -0.16477351 -0.24683075 -0.3297039 -0.2087281 0.3054704 0.16033563 0.16922899
0.011584984 -0.18465431 0.05712661 -0.31997144 -0.26545072 -0.17671955 0.22867133 0.2257643
-0.16171053 -0.014445143 0.22179635 0.3585463 0.1312908 0.04784515 0.23716491 -0.2179122
0.058971427 -0.28027472 -0.24631141 -0.17460586 0.15194096 0.1430787 -0.20608377 0.10975582
0.19555567 -0.044188075 0.011678682 0.08252183 0.21780802 0.34035555 -0.27349004 -0.121913
0.13488297 0.29071623 0.2985066 0.32369128 0.06007536 -0.3115537 0.033693053 -0.22253326
-0.32926476 0.32079202 0.2732586 -0.35555953 0.07125441 -0.0619394 -0.06503081 -0.17869696
0.13711119 -0.20843527 0.12670998 0.17910817 0.251303 0.13075635 -0.3527744 -0.23442566
0.17820176 0.07281272 -0.27563548 -0.20413436 0.332618 0.23605552 -0.154097 -0.06637226
-0.3391543 -0.013177502 -0.2663763 -0.2647061 -0.025608601 0.056816127 -0.13668181 0.2298749
-0.21430957 0.31708544 0.24163534 -0.29414627 -0.09060823 0.018169587 0.055902574 0.10575631
0.13681407 0.021857172 -0.17119575 0.16702136 -0.33976796 -0.2106417 -0.08904263 -0.19675756
-0.13061291 -0.29583403 -0.07524418 0.079560556 -0.23567921 -0.019630248 0.25499183 -0.044707354
0.008821382 -0.027224585 0.07169141 0.22377412 0.33395344 0.22512338 0.3333108 -0.03145386
-0.3171153 -0.16687988 0.24293205 -0.0020486657 -0.17505406 -0.26988226 -0.33131957 -0.2982458
-0.059782516 0.20218699 0.19351242 -0.34447828 0.23009878 -0.2742783 -0.07427179 -0.14323343
-0.06917217 -0.07125075 -0.31751016 -0.30089685 -0.057898384 0.0068636104 -0.1572517 0.13767824
-0.31332645 -0.019051135 0.3121829 -0.145853 0.32279077 0.13368757 -0.31654766 0.22527635
-0.04232526 -0.15875684 0.28354374 -0.28314704 0.03712851 -0.07366234 0.2544276 0.10468654
0.16259769 0.11741149 -0.097409576 -0.06756745 -0.30629495 0.18980432 0.2810248 0.26975295
-0.255374 0.027598772 -0.25186476 -0.19294715 -0.21067446 0.12468711 -0.21485642 -0.03261453
0.007231743 0.22547656 -0.26713735 -0.23635818 -0.21183091 0.24991892 -0.124067046 0.3018239
0.13309938 0.049229573 -0.0014126382 -0.07820076 0.05191876 -0.083419055 -0.005746288 0.040431984
-0.27897358 -0.18627393 0.2833766 -0.28824872 -0.028402908 0.35115886 0.12797679 0.02000822
-0.3074054 0.16797304 -0.24908899 -0.0878222 -0.12445694 -0.04541551 0.015375048 0.3229585
0.053546593 0.31901905 0.21292819 -0.2223768 0.1606389 -0.2449397 -0.14606072 0.12784375
0.12704301 0.27453724 -0.11211867 -0.013779257 0.19499809 -0.34680194 0.24738514 -0.3093645
0.0075347926 -0.056408267 -0.18258968 0.0460197 0.29655334 -0.10208875 -0.21060337 -0.14408284
00000000: 45ac 57bb 23c7 3a3e 51e4 91be 76f3 80be
00000010: 670c 0dbe 99bf ce3d ddd4 6a3b c051 9d3e
00000020: b022 05bd 4a2c c53d 73ea d9bd e624 90bd
00000030: 5df8 acbe 271e 6dbe e9e7 13be 8eb0 9d3a
00000040: 4536 0f3e 8a60 563e 44a0 70be c543 1fbe
00000050: f084 063e 08bb 953e cfcc 8ebd 800c 953e
00000060: 9a8c 72bd c15f 0d3d 3eb5 a33e 2a04 a7be
00000070: 252d 67be c997 aebd ea0b 09be bd63 a63e
00000080: 984b 6ebe 63ba 28be 33c1 7cbe f3ce a8be
00000090: d2bc 55be 9e66 9c3e 062f 243e 5d4a 2d3e
000000a0: f2ce 3d3c 0516 3dbe 98fd 693d 4cd3 a3be
000000b0: 28e9 87be f8f5 34be d128 6a3e c22e 673e
000000c0: 7297 25be 52ab 6cbc 951e 633e 6193 b73e
000000d0: 1871 063e 47f9 433d 5cdb 723e 6024 5fbe
000000e0: 068c 713d 2b80 8fbe 0f39 7cbe e1cb 32be
000000f0: 6996 1b3e 3983 123e a007 53be a9c7 e03d
00000100: bf3f 483e 8efe 34bd f157 3f3c 3501 a93d
00000110: 1109 5f3e 1543 ae3e e306 8cbe 86ad f9bd
00000120: c31e 0a3e c2d8 943e dbd5 983e ddba a53e
00000130: 9511 763d f783 9fbe ba01 0a3d c2df 63be
00000140: 6495 a8be da3e a43e 8de8 8b3e e60b b6be
00000150: d5ed 913d 2bb4 7dbd e02e 85bd 56fc 36be
00000160: e066 0c3e 0e70 55be 43c0 013e 2268 373e
00000170: c9aa 803e fee4 053e d99e b4be 480d 70be
00000180: 867a 363e d61e 953d 1820 8dbe 9908 51be
00000190: e84c aa3e 8ab8 713e 9bcb 1dbe 2eee 87bd
000001a0: a2a5 adbe 73e6 57bc 7962 88be 8f87 87be
000001b0: 21c9 d1bc 07b8 683d 51f6 0bbe 5364 6b3e
000001c0: f873 5bbe 0659 a23e 416f 773e 579a 96be
000001d0: cf90 b9bd 63d8 943c 19fa 643d c496 d83d
000001e0: fd18 0c3e d00d b33c f04d 2fbe a607 2b3e
000001f0: 11f6 adbe 75b2 57be fb5b b6bd d07a 49be
00000200: 64bf 05be 8f77 97be 9f19 9abd a5f0 a23d
00000210: e455 71be 9dcf a0bc 4a8e 823e 0f1f 37bd
00000220: 8f87 103c 1806 dfbc f2d2 923d 0b25 653e
00000230: f2fb aa3e be86 663e b7a7 aa3e c3d5 00bd
00000240: f05c a2be 8fe2 2abe 2ec3 783e e842 06bb
00000250: 5f41 33be 022e 8abe b8a2 a9be acb3 98be
00000260: 83de 74bd 1b0a 4f3e 1f28 463e 755f b0be
00000270: 049f 6b3e 356e 8cbe cf1b 98bd c9ab 12be
00000280: 23aa 8dbd eaeb 91bd b190 a2be 270f 9abe
00000290: db26 6dbd 23e8 e03b 9706 21be 86fb 0c3e
000002a0: 536c a0be 2011 9cbc 70d6 9f3e 7d5a 15be
000002b0: d544 a53e 65e5 083e 8912 a2be d8ae 663e
000002c0: 405d 2dbd 2791 22be a52c 913e a6f8 90be
000002d0: 1114 183d 48dc 96bd 5644 823e e665 d63d
000002e0: 0280 263e 6f75 f03d ac7e c7bd ce60 8abd
000002f0: b1d2 9cbe 105c 423e 7ce2 8f3e 0f1d 8a3e
00000300: 62c0 82be d216 e23c 6bf4 80be f093 45be
00000310: 0cbb 57be f55b ff3d 5203 5cbe d096 05bd
00000320: 42f8 ec3b 54e3 663e 3ac6 88be e107 72be
00000330: 34ea 58be bfea 7f3e dd16 febd aa88 9a3e
00000340: 344b 083e f3a4 493d 4628 b9ba b827 a0bd
00000350: c4a8 543d 9cd7 aabd 5c4b bcbb 029c 253d
00000360: a0d5 8ebe 98be 3ebe bd16 913e 5695 93be
00000370: 37ad e8bc 18cb b33e 590c 033e 47e8 a33c
00000380: 3e64 9dbe 2001 2c3e 2f11 7fbe 20dc b3bd
00000390: 48e3 febd 9d05 3abd a0e7 7b3c d15a a53e
000003a0: ac53 5b3d 7756 a33e d909 5a3e beb6 63be
000003b0: 867e 243e 79d1 7abe f190 15be 79e9 023e
000003c0: 9017 023e 2590 8c3e 799e e5bd 65c2 61bc
000003d0: 94ad 473e 0690 b1be 8852 7d3e 0665 9ebe
000003e0: 6ce6 f63b 5b0c 67bd caf8 3abe 277f 3c3d
000003f0: d7d5 973e e813 d1bd 69a8 57be 748a 13be

model.0.bias f4 [256]
-0.18020226 -0.09863393 -0.23700732 0.14791311 0.03365958 -0.11924864 -0.03132075 -0.0054030796
0.30310115 0.32022512 -0.26867592 0.13124382 0.13006905 0.13695802 -0.049259156 0.09308623
0.089920655 0.34476912 -0.3370131 -0.12703136 -0.23447175 -0.1684145 0.06869722 0.20322981
-0.26145878 0.2300116 0.2909206 -0.17898642 0.066910125 -0.18068798 0.07218363 -0.15763737
-0.1346154 -0.23308812 -0.2931827 0.27780086 -0.041461397 -0.010366151 -0.17567408 0.24709432
-0.20634553 -0.1560753 -0.28647077 -0.29255512 0.31302923 -0.26986 -0.041673336 -0.114594445
0.12961999 0.09276397 -0.27286503 0.31588164 -0.34997487 0.025750503 -0.03213122 -0.07370209
0.23385039 0.2983945 0.043009732 -0.1274196 0.25017014 0.21782817 0.05999814 -0.10217853
0.020667046 0.3147973 0.038052484 -0.06498423 -0.295472 -0.1880267 0.2566688 -0.027235085
-0.022699751 0.13863379 -0.23517524 -0.0048554847 -0.09887768 0.17988847 0.29390505 0.2143056
0.26094335 -0.30389452 -0.12509452 0.045899462 -0.3005004 0.09393811 -0.22929285 0.14638384
0.28810477 -0.29902282 0.29382762 0.15543216 -0.2282772 0.33442566 -0.3047651 -0.23785415
-0.16866586 -0.019878445 0.063847505 -0.10521884 -0.33379665 -0.0476168 0.2706837 0.27242908
0.17332153 0.04423547 0.08773387 -0.27547002 0.14363702 -0.3477991 -0.14376478 -0.09366077
0.25586036 -0.010775043 -0.16327855 0.062948465 -0.3012364 -0.08988941 0.09808375 -0.019400993
-0.029002871 0.2085321 -0.2636359 -0.17649415 0.34239358 0.07808526 -0.057603307 0.17575148
0.21523935 -0.058347356 -0.1457853 -0.05814391 0.11496588 -0.039856073 0.2043544 -0.2896479
-0.16862743 0.265611 0.05057508 0.072464 0.113949634 -0.081066824 -0.13294145 0.10076376
-0.097290814 -0.13505028 0.053222816 0.0884875 -0.030453991 -0.23813179 -0.053664144 -0.19956292
0.17978758 -0.23488128 0.2773956 0.14520653 -0.30196756 0.26200607 -0.35734928 -0.020293595
-0.21830449 -0.2964347 0.034595888 -0.16946577 0.2536947 -0.2760285 0.29078832 0.20774218
0.312527 -0.10950031 -0.21881017 -0.22969146 0.29087573 -0.17891787 -0.04457457 -0.054895215
0.06023361 -0.2875704 0.29160678 -0.26196006 0.35057616 -0.14538553 -0.14683078 -0.043301042
0.1030523 -0.073137656 -0.35194218 0.2473443 0.3487574 0.18392847 0.34393486 0.090607285
-0.030030772 -0.27938685 -0.29779762 -0.22675988 -0.08900303 0.20400915 -0.14870553 -0.009473002
-0.007405954 -0.22757159 -0.010624607 0.34060308 0.27942583 0.26189628 -0.034856316 0.0070265
0.19379488 -0.1158515 -0.14297175 0.2938916 0.024026329 -0.2386775 0.2971779 0.058401085
0.19070545 -0.30629492 0.066550225 0.21367827 -0.05180882 -0.19961184 0.28169167 0.15844126
0.09310657 0.08254 0.007982984 0.20277101 -0.062569305 -0.2050199 0.14035423 0.090527445
0.12049753 -0.037214145 -0.040612075 -0.025298472 0.09533432 -0.27372098 -0.32600102 0.11310972
-0.1933339 -0.027271977 0.10202774 0.046019353 0.21022688 0.046279036 0.09228521 -0.030756323
0.05330973 0.12691563 0.23256746 -0.3307554 -0.14451346 -0.3241105 -0.13914548 0.21528566
00000000: f186 38be 9600 cabd 0cb2 72be 8976 173e
00000010: a1de 093d a238 f4bd 304a 00bd 510c b1bb
00000020: 1330 9b3e 8cf4 a33e e48f 89be c864 063e
00000030: d230 053e b93e 0c3e f8c3 49bd fea3 be3d
00000040: 5228 b83d 9485 b03e fb8c acbe 8214 02be
00000050: 5d19 70be da74 2cbe 21b1 8c3d 7a1b 503e
00000060: eddd 85be 2988 6b3e 8bf3 943e 3748 37be
00000070: 2d08 893d 4506 39be 03d5 933d b16b 21be
00000080: 9fd8 09be a7ae 6ebe 0b1c 96be ea3b 8e3e
00000090: 6dd3 29bd cad6 29bc e8e3 33be 4b06 7d3e
000000a0: 3e4c 53be 34d2 1fbe 4cac 92be c9c9 95be
000000b0: 5e45 a03e 172b 8abe a9b1 2abd 7eb0 eabd
000000c0: 1abb 043e 09fb bd3d f7b4 8bbe 3dbb a13e
000000d0: e82f b3be b8f2 d23c 079c 03bd 1ff1 96bd
000000e0: 7a76 6f3e 2ac7 983e f92a 303d 497a 02be
000000f0: 4d16 803e 590e 5f3e 9cc0 753d fa42 d1bd
00000100: f04d a93c 1d2d a13e ecdc 1b3d 7416 85bd
00000110: 1b48 97be 128a 40be 186a 833e 1d1c dfbc
00000120: d4f4 b9bc 04f6 0d3e c7d1 70be c21a 9fbb
00000130: 6280 cabd af34 383e b97a 963e ed72 5b3e
00000140: 5e9a 853e 1098 9bbe c718 00be 1301 3c3d
00000150: 30db 99be a062 c03d bfcb 6abe a5e5 153e
00000160: 7882 933e 8519 99be 9370 963e 9c29 1f3e
00000170: 80c1 69be d739 ab3e 2c0a 9cbe 0a90 73be
00000180: beb6 2cbe 1fd8 a2bc 7bc2 823d fa7c d7bd
00000190: 65e7 aabe d509 43bd 0e97 8a3e d37b 8b3e
000001a0: 337b 313e 4130 353d d1ad b33d 680a 8dbe
000001b0: 9515 133e b912 b2be 1337 13be 38d1 bfbd
000001c0: 2100 833e ce89 30bc 7e32 27be 20eb 803d
000001d0: a83b 9abe f017 b8bd 22e0 c83d d5ee 9ebc
000001e0: 6e97 edbc 7089 553e 49fb 86be e2ba 34be
000001f0: 364e af3e 2aeb 9f3d 72f1 6bbd 32f8 333e
00000200: b467 5c3e a3fd 6ebd be48 15be 4f28 6ebd
00000210: 3b73 eb3d 1f40 23bd 4842 513e bb4c 94be
00000220: abac 2cbe 2afe 873e d127 4f3d 0168 943d
00000230: 6d5e e93d 5d06 a6bd ce21 08be 3b5d ce3d
00000240: 6840 c7bd 9f4a 0abe 2b00 5a3d ef38 b53d
00000250: a67a f9bc d2d8 73be efce 5bbd 395a 4cbe
00000260: 3c1a 383e b884 70be cc06 8e3e 05b1 143e
00000270: 7e9b 9abe a925 863e 7cf6 b6be c13e a6bc
00000280: 368b 5fbe 4ac6 97be 6bb4 0d3d 6f88 2dbe
00000290: 46e4 813e 9c53 8dbe 35e2 943e 5eba 543e
000002a0: 8a03 a03e b341 e0bd c60f 60be 3d34 6bbe
000002b0: aaed 943e 3f36 37be d393 36bd ced9 60bd
000002c0: 85b7 763d 6d3c 93be 7c4d 953e a11f 86be
000002d0: b87e b33e f2df 14be cf5a 16be 6f5c 31bd
000002e0: 160d d33d 32c9 95bd c431 b4be d347 7d3e
000002f0: 5490 b23e bf57 3c3e 3b18 b03e 5090 b93d
00000300: 1803 f6bc cb0b 8fbe ee78 98be be33 68be
00000310: 3847 b6bd c6e7 503e 4346 18be a634 1bbc
00000320: a5ad f2bb 8708 69be d512 2ebc 8763 ae3e
00000330: e710 8f3e 4517 863e 7fc5 0ebd 8e3e e63b
00000340: 2a72 463e 8d43 edbd 3067 12be f678 963e
00000350: ddd2 c43c e067 74be b427 983e fa35 6f3d
00000360: 4a48 433e b0d2 9cbe 7c4b 883d 7ace 5a3e
00000370: 7c35 54bd 0c67 4cbe e439 903e 6d3e 223e
00000380: a8ae be3d bb0a a93d 10cb 023c 34a3 4f3e
00000390: 5624 80bd bdf0 51be 05b9 0f3e 7466 b93d
000003a0: 69c7 f63d dc6d 18bd d958 26bd be3e cfbc
000003b0: a43e c33d 2825 8cbe 9be9 a6be 12a6 e73d
000003c0: 52f9 45be 7b69 dfbc ebf3 d03d ca7e 3c3d
000003d0: b745 573e 168f 3d3d 0700 bd3d aff4 fbbc
000003e0: 4e5b 5a3d 2cf6 013e 2a26 6e3e c658 a9be
000003f0: 56fb 13be d0f1 a5be 277c 0ebe d873 5c3e

model.2.weight f4 [64, 256]
-0.075482026 -0.052786388 0.013850847 -0.052684046 0.03414285 0.008494182 0.02838372 0.041285433
-0.051872145 0.058094364 0.043740056 -0.027501334 0.019489346 -0.02483311 -0.026729971 0.005215478
-0.027601961 0.052324243 0.07252621 0.013468677 -0.060800206 -0.009066966 -0.0012917736 0.018117124
0.010135333 -0.0050948625 0.01417286 -0.03750396 -0.053671867 -0.057368953 0.017829157 0.028300267
-0.01885901 0.07040866 -0.011663384 -0.053357728 0.025918111 -0.02382321 -0.0034329041 0.056423448
-0.011537596 0.039967053 -0.011017598 -0.03650479 0.039589763 -0.017562866 0.017316842 -0.010222945
0.028254423 -0.075462565 -0.023303458 -0.0052075163 0.029035378 0.010747073 0.04305573 0.035348143
-0.036357693 0.01418323 0.024252417 -0.06254074 -0.063395 0.0033030363 -0.035616964 -0.017964963
0.05800833 -0.0021104908 -0.049431544 -0.016728513 0.086203 -0.020698154 -0.021019004 0.0050415187
0.005976365 -0.03742809 0.028249878 0.047278408 0.038061548 0.0432938 -0.023772363 -0.02726889
0.0113868555 0.011151261 0.027646448 -0.064661294 -0.026800059 0.03703956 0.016690234 -0.036840104
-0.04302017 0.024366163 -0.0036162764 -0.08749268 0.06671965 0.03186459 -0.023943396 -0.06883106
0.07908223 -0.0036802033 -0.042364843 0.03798284 -0.0033933248 -0.007247884 -0.026587607 -0.048808303
-0.049353883 -0.024935275 -0.024333233 0.060346473 0.001103175 -0.018496143 0.04054411 -0.07442408
-0.041821755 0.011194973 -0.056576513 0.047290854 -0.01508271 -0.048501898 -0.050266206 0.022795262
0.047827207 -0.016226582 -0.046540115 -0.056163706 0.00989986 0.02112055 0.006206746 -0.00082665525
-0.013376045 0.023709137 0.050318696 0.06295613 0.03720653 -0.018595316 -0.02427242 -0.008558339
0.022790069 0.0027169907 0.024724802 -0.027527206 -0.02972684 0.06618734 0.00027975143 0.017536286
-0.045585807 -0.030227514 0.0153291 0.050400365 -0.03484813 -0.018903192 0.030154742 -0.013042654
-0.051186357 -0.036853343 0.07995012 0.036868684 -0.00588614 -0.0030370902 0.011729035 -0.046306267
0.02856561 0.035890516 -0.013802011 0.0093380995 -0.045325425 0.05569788 0.0444244 -0.07354346
-0.07371581 -0.027223349 0.041743677 -0.027044592 0.06714534 -0.061105106 -0.0561947 0.03374142
-0.043926988 -0.0022519163 -0.009380707 -0.022464795 -0.048462715 -0.03494684 0.048914116 -0.012231269
-0.05014908 0.004274788 -0.07006792 0.021471947 0.030671785 0.077048026 -0.04651785 0.0063115195
0.012471071 0.056595523 -0.02903183 0.0478222 0.03528711 0.026366 -0.05806596 0.05512846
-0.025485178 -0.03824371 -0.010248041 0.05258669 -0.04791022 0.02389316 -0.02257213 0.0063034147
0.038956624 0.038181007 -0.051880896 -0.037665088 0.020408224 -0.058951125 0.020555582 -0.027686274
-0.017599272 0.020640546 -0.06254044 -0.056024887 0.008236823 -0.08281835 0.051351182 -0.072089046
-0.0037843438 0.020720515 0.0064518456 -0.032102372 0.039696347 0.006954348 0.050214354 -0.06813488
-0.058520477 0.022471188 0.014896453 -0.024983766 -0.03983515 -0.053767107 -0.026745697 -0.05208854
-0.054254252 -0.05929473 0.016024355 0.03406623 -0.048843965 0.01506459 0.011225728 0.023688575
-0.030074261 -0.020163294 0.047604114 0.042468492 -0.048803296 -0.033962063 0.001692811 -0.01383921
00000000: 5296 9abd 8a36 58bd aaee 623c 3acb 57bd
00000010: 60d9 0b3d 2e2b 0b3c fa84 e83c ea1a 293d
00000020: e377 54bd 5bf4 6d3d c628 333d 7a4a e1bc
00000030: 1fa8 9f3c ce6e cbbc d0f8 dabc 9ae6 aa3b
00000040: 821d e2bc f251 563d 9f88 943d baab 5c3c
00000050: a309 79bd 9d8d 14bc bb50 a9ba 5d6a 943c
00000060: ab0e 263c cef2 a6bb 4935 683c c19d 19bd
00000070: 08d7 5bbd b5fb 6abd 740e 923c f6d5 e73c
00000080: 367e 9abc 6a32 903d c717 3fbc a28d 5abd
00000090: 3852 d43c e428 c3bc 93fa 60bb 461c 673d
000000a0: 2f08 3dbc 7eb4 233d 2883 34bc 0c86 15bd
000000b0: e028 223d 00e0 8fbc 0ddc 8d3c 247e 27bc
000000c0: d275 e73c 1e8c 9abd e5e6 bebc d0a3 aabb
000000d0: 9adb ed3c 7e14 303c 355b 303d 37c9 103d
000000e0: ceeb 14bd c760 683c 01ad c63c 5c15 80bd
000000f0: 3dd5 81bd c177 583b 18e3 11bd 422b 93bc
00000100: 259a 6d3d 2950 0abb bb78 4abd 3c0a 89bc
00000110: 338b b03d 2d8f a9bc 0c30 acbc 5333 a53b
00000120: 62d5 c33b 324e 19bd 4a6c e73c 01a7 413d
00000130: 6de6 1b3d d754 313d 42be c2bc 0263 dfbc
00000140: ef8f 3a3c c7b3 363c ce7a e23c 246d 84bd
00000150: cc8b dbbc cbb6 173d f5b9 883c a6e5 16bd
00000160: eb35 30bd 8c9b c73c 0dff 6cbb 5d2f b3bd
00000170: 50a4 883d 7284 023d f124 c4bc 4cf7 8cbd
00000180: ddf5 a13d 912f 71bb c286 2dbd e593 1b3d
00000190: 8b62 5ebb a87f edbb 41ce d9bc 37eb 47bd
000001a0: 4c27 4abd 1045 ccbc 7d56 c7bc dd2d 773d
000001b0: 6998 903a 3985 97bc 9511 263d a76b 98bd
000001c0: 4a4d 2bbd 1f6b 373c c6bc 67bd 0eb4 413d
000001d0: 791d 77bc eda9 46bd f0e3 4dbd 21bd ba3c
000001e0: 76e6 433d 9ced 84bc d9a0 3ebd ea0b 66bd
000001f0: 0633 223c 0105 ad3c f661 cb3b e5b3 58ba
00000200: 3327 5bbc aa39 c23c fa1a 4e3d 25ef 803d
00000210: e065 183d 3455 98bc f4d6 c6bc 4738 0cbc
00000220: 3db2 ba3c 8a0f 323b ab8b ca3c bc80 e1bc
00000230: b485 f3bc 3a8d 873d 9aab 9239 42a8 8f3c
00000240: 2fb8 3abd b19f f7bc e826 7b3c 9d70 4e3d
00000250: eabc 0ebd deda 9abc 1407 f73c dbb0 55bc
00000260: c9a8 51bd 88f3 16bd e3bc a33d 9e03 173d
00000270: 85e0 c0bb eb09 47bb 232b 403c a4ab 3dbd
00000280: 6d02 ea3c ef01 133d d421 62bc d4fe 183c
00000290: 27a7 39bd 7623 643d 5cf6 353d f49d 96bd
000002a0: 51f8 96bd 8003 dfbc 6bfb 2a3d 9f8c ddbc
000002b0: 7f83 893d 5949 7abd 6a2c 66bd 7134 0a3d
000002c0: c9ec 33bd e394 13bb 89b1 19bc 1708 b8bc
000002d0: d780 46bd 6b24 0fbd 2b5a 483d a965 48bc
000002e0: 1f69 4dbd 8513 8c3b c57f 8fbd f0e5 af3c
000002f0: 6543 fb3c 5bcb 9d3d 8089 3ebd ddd0 ce3b
00000300: 7753 4c3c b5d0 673d 29d4 edbc 36e1 433d
00000310: 3789 103d 82fd d73c 92d6 6dbd 61ce 613d
00000320: 4bc6 d0bc 70a5 1cbd 66e7 27bc 2465 573d
00000330: 823d 44bd 97bb c33c 30e9 b8bc e08c ce3b
00000340: fb90 1f3d b063 1c3d 1081 54bd b546 1abd
00000350: 262f a73c bc76 71bd 2e64 a83c 53ce e2bc
00000360: 592c 90bc 5d16 a93c 3415 80bd 5a7a 65bd
00000370: bdf3 063c ab9c a9bd 9e55 523d 6ca3 93bd
00000380: c102 78bb 12be a93c 016a d33b c77d 03bd
00000390: a398 223d 4de1 e33b 91ad 4d3d 4d8a 8bbd
000003a0: 2bb3 6fbd 7f15 b83c 4110 743c c1aa ccbc
000003b0: 2f2a 23bd e63a 5cbd cb19 dbbc cb5a 55bd
000003c0: b539 5ebd 08df 72bd 8245 833c 0889 0b3d
000003d0: 9c10 48bd 78d1 763c 1eec 373c 8b0e c23c
000003e0: 4c5e f6bc 7e2d a5bc 88fc 423d 71f3 2d3d
000003f0: f7e5 47bd ce1b 0bbd 50e1 dd3a dbbd 62bc

model.2.bias f4 [64]
0.026636958 0.044343352 -0.024122663 0.006431278 -0.029179685 -0.024698181 0.049351614 0.041339476
-0.021717621 -0.050316732 -0.0112508 -0.03548165 0.056309704 -0.025855597 0.010221874 0.036695696
-0.02386142 0.024146046 -0.022231378 0.004941417 0.0054537305 0.036038227 0.07684986 -0.031810064
-0.012163756 -0.039713863 0.04826041 0.041662242 0.042482 0.025012743 -0.014388561 0.014684578
-0.035579506 0.002836809 -0.043978278 -0.04317277 -0.06210581 0.026805153 0.034276474 -0.0085240025
-0.058387652 -0.020954005 0.027436284 0.064277165 0.021646194 -0.030700032 0.055466685 0.026748104
0.0077781677 0.03270684 -0.03550412 0.006610439 0.00014413607 -0.0029176425 0.052323226 0.03621995
0.007493565 0.018094026 -0.049227063 0.044296686 -0.0054620877 -0.0350782 0.017596649 -0.025131863
00000000: c035 da3c 60a1 353d e49c c5bc 78bd d23b
00000010: 3c0a efbc d753 cabc eb24 4a3d 9553 293d
00000020: 27e9 b1bc eb18 4ebd 4755 38bc 3555 11bd
00000030: 01a5 663d 1ecf d3bc a679 273c 3a4e 163d
00000040: 0679 c3bc eecd c53c 941e b6bc 9ceb a13b
00000050: 35b5 b23b d29c 133d 7663 9d3d 454b 02bd
00000060: 7e4a 47bc 01ab 22bd b5ac 453d 07a6 2a3d
00000070: 9b01 2e3d 86e7 cc3c 00be 6bbc 9697 703c
00000080: d1bb 11bd c2e9 393b 9122 34bd eed5 30bd
00000090: a962 7ebd 7b96 db3c 7d65 0c3d 42a8 0bbc
000000a0: e427 6fbd bca7 abbc 0fc2 e03c bfa3 833d
000000b0: 5c53 b13c a27e fbbc 0931 633d d71e db3c
000000c0: 00e0 fe3b 9cf7 053d c56c 11bd 629c d83b
000000d0: 3b23 1739 eb35 3fbb e150 563d 5f5b 143d
000000e0: 948c f53b ec39 943c 51a2 49bd 7170 353d
000000f0: 50fb b2bb 29ae 0fbd d926 903c 56e1 cdbc

model.4.weight f4 [8, 64]
0.011176028 0.033045884 0.02245447 0.049193572 0.14455788 0.11331645 -0.14862871 -0.049406298
0.020760877 0.027936649 -0.17016637 0.14499313 -0.0055062333 0.15436167 0.121044524 0.04951868
-0.016609225 0.12756579 0.02377504 0.09711327 -0.03708367 0.020587938 -0.1555366 0.103335194
0.14320377 -0.054594688 -0.051555913 -0.013663098 0.0676454 0.026446057 -0.13470751 -0.024486046
-0.10298859 0.07116421 -0.095032506 -0.11808114 0.10500761 -0.13966192 0.15050673 -0.03242451
-0.1543733 -0.16723712 0.036633477 0.050989676 0.06932303 0.029496206 -0.07168891 0.11479956
-0.006528493 0.0864657 -0.016548824 -0.03539495 -0.0526273 -0.086592555 -0.17030773 0.045423634
0.10337654 0.079757296 -0.122762874 0.0105690025 -0.19815294 -0.019572837 0.008982428 0.09834063
-0.0972684 0.053634416 0.067364395 0.0005839889 0.18569987 -0.050089058 0.034034256 -0.086461596
0.033318806 0.08751672 -0.18744327 0.13133965 0.05971686 -0.033060133 -0.09888419 -0.11128933
0.105781004 -0.12636086 -0.09015484 -0.109510414 0.101142704 0.029488662 -0.16799766 -0.13992152
-0.056994252 0.10070877 0.105334654 0.10514267 0.0349474 -0.12260093 -0.05264747 0.1245696
-0.099880144 -0.035699565 0.11585574 -0.07016355 -0.058467124 -0.087141976 -0.017919721 -0.15480717
-0.00012829424 -0.022088911 0.058004905 -0.0741515 0.0154493 -0.06871469 0.13655908 0.06407194
-0.10924763 0.06105166 0.049733073 0.09141758 0.12786838 -0.023943283 0.0011302461 0.091739975
0.029896596 -0.010550819 0.062380485 -0.027423894 0.109017536 0.050116282 0.07229372 0.04672755
0.035254773 0.0027279234 -0.057667054 0.0101662865 0.029563684 -0.086853124 0.14974856 0.104197696
-0.09344396 -0.115060136 0.04121333 -0.114526115 0.04999736 0.058365133 0.05105052 0.0019432319
-0.06703596 -0.119616754 0.053441886 0.07751938 0.0021161141 -0.008844924 -0.035277095 0.0085678585
-0.06553582 -0.08377486 0.03301653 -0.03486866 -0.07945498 -0.12031605 -0.033617076 0.021826573
-0.078900576 0.022737365 -0.027764548 0.056696583 0.051057376 -0.0102219945 -0.14947516 -0.029341461
-0.08291439 0.031081807 -0.13488927 -0.12868343 0.07233312 -0.06158568 0.03966219 0.107453816
-0.0969688 -0.13935368 -0.11467706 0.062468085 0.10868569 0.034202386 -0.059843186 -0.060289647
-0.06396208 -0.13214132 0.0542832 0.09413258 0.14169924 -0.12670918 0.044451397 -0.037929058
-0.10927355 0.093696766 0.063647136 -0.027701069 0.031470846 -0.066787116 0.036626834 -0.047138087
0.025915774 0.14296052 -0.08673323 0.14643037 0.06622014 -0.04692398 -0.07863272 -0.09594115
0.07260838 0.019819135 -0.04235669 0.11399926 -0.027890818 0.05095707 0.0031001263 -0.0032022265
-0.041884787 -0.10533226 -0.14741127 0.0824926 0.1310333 0.14417313 0.05087688 -0.04075238
-0.1000701 -0.12630528 -0.063316844 -0.091010585 -0.029357085 -0.11150612 -0.04668876 0.0006555988
-0.11453936 -0.013339574 0.016798092 0.14396523 0.068429306 0.05779014 -0.095724665 0.019821314
-0.07117405 0.10723575 0.13981827 -0.106553435 0.11437927 -0.08924165 -0.09617942 -0.084599555
0.05054434 -0.09285015 -0.08435969 0.016798833 -0.1121981 0.11685103 -0.006887051 0.07226767
00000000: a91b 373c 1f5b 073d 70f2 b73c 337f 493d
00000010: fb06 143e 7412 e83d 2032 18be 425e 4abd
00000020: b712 aa3c 66db e43c 1840 2ebe 1479 143e
00000030: a26d b4bb fc10 1e3e 31e6 f73d 19d4 4a3d
00000040: 1210 88bc 9ba0 023e dfc3 c23c 52e3 c63d
00000050: 0ce5 17bd 09a8 a83c fd44 1fbe 67a1 d33d
00000060: 02a4 123e ae9e 5fbd 4b2c 53bd 30db 5fbc
00000070: ac89 8a3d 67a5 d83c c4f0 09be f696 c8bc
00000080: afeb d2bd 8bbe 913d 67a0 c2bd 86d4 f1bd
00000090: 3b0e d73d 8903 0fbe 701e 1a3e 90cf 04bd
000000a0: 0914 1ebe 3540 2bbe fc0c 163d 8dda 503d
000000b0: 3cf9 8d3d 07a2 f13c a3d1 92bd 081c eb3d
000000c0: f8ec d5bb ee14 b13d 6691 87bc 4cfa 10bd
000000d0: b98f 57bd 7057 b1bd 2665 2ebe 220e 3a3d
000000e0: 14b7 d33d cb57 a33d 1a6b fbbd 9c29 2d3c
000000f0: 9be8 4abe 3757 a0bc 092b 133c d066 c93d
00000100: a834 c7bd c3af 5b3d 58f6 893d d516 193a
00000110: 1b28 3e3e 2f2a 4dbd 8167 0b3d c712 b1bd
00000120: 4d79 083d f73b b33d 21f1 3fbe e77d 063e
00000130: ab99 743d 106a 07bd cb83 cabd a9eb e3bd
00000140: b6a3 d83d be64 01be 1aa3 b8bd ff46 e0bd
00000150: e823 cf3d 3592 f13c 9407 2cbe 9647 0fbe
00000160: ce72 69bd 6640 ce3d b2b9 d73d 0a55 d73d
00000170: 0125 0f3d 3216 fbbd e0a4 57bd 591e ff3d
00000180: f68d ccbd b539 12bd c645 ed3d e8b1 8fbd
00000190: 397b 6fbd 7e77 b2bd 61cc 92bc c585 1ebe
000001a0: b986 06b9 cef3 b4bc 8d96 6d3d bedc 97bd
000001b0: 101f 7d3c 4aba 8cbd 25d6 0b3e 2638 833d
000001c0: 39bd dfbd 4e11 7a3d e8b4 4b3d 2439 bb3d
000001d0: eeef 023e b424 c4bc c424 943a 2be2 bb3d
000001e0: b5e9 f43c 58dd 2cbc ae82 7f3d 13a8 e0bc
000001f0: 9644 df3d bb46 4d3d bb0e 943d 6365 3f3d
00000200: 4f67 103d f6c6 323b 4a34 6cbd 7f90 263c
00000210: 8a2f f23c 0de0 b1bd b057 193e 9a65 d53d
00000220: 8c5f bfbd a6a4 ebbd 4fcf 283d ab8c eabd
00000230: 08ca 4c3d 4710 6f3d 5a1a 513d 0bb4 fe3a
00000240: 264a 89bd a1f9 f4bd e1e5 5a3d 7bc2 9e3d
00000250: 81ae 0a3b 4dea 10bc b77e 10bd 3460 0c3c
00000260: a537 86bd 2792 abbd 573c 073d 71d2 0ebd
00000270: 4bb9 a2bd 4368 f6bd 0fb2 09bd a4cd b23c
00000280: a096 a1bd b643 ba3c 7a72 e3bc ad3a 683d
00000290: 8a21 513d 277a 27bc 0410 19be 815d f0bc
000002a0: 05cf a9bd 469f fe3c 6a20 0abe 97c5 03be
000002b0: 6323 943d 4441 7cbd d274 223d bf10 dc3d
000002c0: 9497 c6bd bbb2 0ebe cedb eabd 89de 7f3d
000002d0: 9a96 de3d cd17 0c3d 211e 75bd 47f2 76bd
000002e0: 8dfe 82bd 0e50 07be 1058 5e3d 95c8 c03d
000002f0: 9b19 113e 0dc0 01be ab12 363d 805b 1bbd
00000300: d0ca dfbd 17e4 bf3d 6e59 823d 5aed e2bc
00000310: 93e7 003d afc7 88bd 0506 163d de13 41bd
00000320: 514d d43c 3e64 123e 31a1 b1bd d8f1 153e
00000330: 6d9e 873d 5c33 40bd 310a a1bd cb7c c4bd
00000340: b4b3 943d bd5b a23c 357e 2dbd 7278 e93d
00000350: 497b e4bc 5cb8 503d 7d2b 4b3b 72dc 51bb
00000360: 628f 2bbd 71b8 d7bd fbf2 16be e1f1 a83d
00000370: 982d 063e 1fa2 133e 4664 503d f8eb 26bd
00000380: 8df1 ccbd 2c56 01be 43ac 81bd c263 babd
00000390: 457e f0bc 525d e4bd b73c 3fbd 7edc 2b3a
000003a0: 9d93 eabd 3b8e 5abc 279c 893c 9f6b 133e
000003b0: aa24 8c3d 5bb5 6c3d 4b0b c4bd 4f60 a23c
000003c0: b3c3 91bd 6b9e db3d 852c 0f3e b038 dabd
000003d0: ae3f ea3d 54c4 b6bd b7f9 c4bd 8842 adbd
000003e0: 9507 4f3d 3828 bebd c6c4 acbd b59d 893c
000003f0: 1ec8 e5bd 984f ef3d c5ac e1bb 1201 943d

model.4.bias f4 [8]
-0.114082195 -0.0442518 0.054563083 -0.06955516 0.020404955 0.07698724 -0.07649153 0.07979768
00000000: eda3 e9bd 6041 35bd 8a7d 5f3d f072 8ebd
00000010: 4b28 a73c 7cab 9d3d 97a7 9cbd f76c a33d

model.6.weight f4 [1, 8]
0.5020244 0.22775032 -0.24903709 0.31803197 0.09416745 -0.7282036 -0.067855336 0.07180178
00000000: ac84 003f 6137 693e 9403 7fbe 16d5 a23e
00000010: ddda c03d 8d6b 3abf bdf7 8abd d00c 933d
