HW2/model45epoch_model1.pth (torch, 79567 bytes, 7 tensors)

model.0.weight f4 [256, 8]
000000 64 f6 27 3e 35 d1 a8 3e fc 96 56 be 45 cd 10 be
       0.16402584 0.32972112 -0.20956033 -0.14140804
000010 09 5c 9a bd 4f 7b 55 be b4 9c a5 be 24 b7 65 be
       -0.075370856 -0.2084782 -0.32346117 -0.22433144
000020 e2 60 e3 3c 6b 31 d4 3d a1 f7 26 be 07 34 9d bd
       0.027756158 0.10360988 -0.163054 -0.07675939
000030 e7 60 6c be af ce 47 3e 48 5f 18 3e f5 a2 b6 3d
       -0.2308384 0.19512437 0.14880097 0.089178
000040 74 a0 1c 3e 19 72 17 3e eb b4 28 bd 35 9c a2 3e
       0.15295583 0.14789619 -0.04118816 0.31759802
000050 e4 28 a2 be 75 bd 4f be 62 81 85 3e b8 99 b5 3e
       -0.31671822 -0.20287116 0.26075274 0.3546884
000060 6c de 91 be 57 62 20 3e f9 61 63 3e b4 ab b0 bd
       -0.28490007 0.15662514 0.22205342 -0.086265
000070 67 f7 1d be 42 5d 64 bd 99 17 7b be 3e 8d 45 be
       -0.15426408 -0.055753 -0.2452072 -0.19292161
000080 0b 55 98 be 48 f5 85 be 50 61 79 3e e5 b1 e4 3d
       -0.29752383 -0.26163697 0.24353528 0.11166743
000090 ad 04 73 3e f4 81 60 3c ab e7 0e be 8b fd 9d be
       0.23732252 0.013702858 -0.13955562 -0.308575
0000a0 06 c7 8f bd 29 f5 a1 3e f7 bd 6f 3e b5 01 a9 be
       -0.070203826 0.31632355 0.2341231 -0.33009115
0000b0 c0 03 9a be 64 32 7a 3d 92 e0 48 be c6 0a 89 3e
       -0.30080986 0.061083212 -0.19616917 0.26766032
0000c0 f4 84 19 be 85 58 d1 3d a9 5b 09 bd a6 1b 56 be
       -0.14992124 0.10221962 -0.03353468 -0.20908985
0000d0 6b 46 d0 3d 0e a8 21 bd c6 14 85 be 86 05 3d be
       0.10169681 -0.03946691 -0.2599241 -0.18459138
0000e0 15 98 9b 3d cb dc 99 be 5f f9 27 be bb 69 fe 3d
       0.07597367 -0.30051264 -0.16403721 0.1242251
0000f0 c5 6e 4c be 22 44 a6 3e f9 32 59 be 39 01 4d 3d
       -0.1996413 0.32473856 -0.21210851 0.050049994
000100 86 09 20 be 84 cb 6f 3e 28 b1 c2 3d 37 67 24 3e
       -0.15628633 0.23417479 0.09506446 0.16054998
000110 f4 b6 f0 3c 6f 9b 9e 3e fc c5 9c 3e 38 eb 01 bd
       0.029384114 0.3097796 0.306198 -0.031718463
000120 56 8b b0 be f0 ad b1 3e dd c3 37 be c7 7e 35 be
       -0.34481305 0.34703016 -0.1794581 -0.17724143
000130 49 e0 30 3e 10 dc 19 3d a2 7c 5e be 11 14 04 3d
       0.17273058 0.037563384 -0.21727231 0.0322457
000140 35 5e 5a 3e bb 8a 04 be ef 59 6d be dc 12 f6 3d
       0.21325 -0.12943546 -0.23178838 0.12015316
000150 ac af 35 be 3a d9 93 be 13 4d 5e 3e 79 3d 12 3e
       -0.17742795 -0.28876668 0.21709089 0.14281262
000160 c6 fb 49 be f4 77 11 bd 1a 5b 7d be 85 61 bd 3d
       -0.1972495 -0.035514787 -0.24741784 0.09247116
000170 f2 c4 60 be 1d dc a3 be f9 fd 1d be db dd 9c 3d
       -0.21950129 -0.3200387 -0.15428914 0.07659503
000180 18 19 26 3e 86 fd 94 be 43 ee 1c be a8 fe 8e 3d
       0.1622051 -0.29099673 -0.15325265 0.069821656
000190 3c 6e a8 bd 3a 53 32 3e b6 19 72 be b1 2c bc bd
       -0.082241505 0.17414561 -0.2364262 -0.09188212
0001a0 c0 74 c7 bd 2c bd 33 be 8c ca 03 3e 12 e8 8f be
       -0.09739065 -0.17552632 0.12870234 -0.28106743
0001b0 6d 8e b4 3e 5b e7 0d 3e e3 df 78 3c bc 68 89 3e
       0.35264912 0.13857786 0.0151900975 0.26837718
0001c0 9c e0 09 bc bd 9d b1 be d4 8f 24 be e2 5a 4f 3e
       -0.008415367 -0.34690657 -0.16070491 0.20249513
0001d0 02 e6 77 bd 73 40 a0 bd 9a 5b 6f be 0d 21 a7 3d
       -0.060522087 -0.07824793 -0.23374787 0.08160601
0001e0 cf 9a 29 be bd ba 78 be 39 b9 1f be c7 a6 ae be
       -0.16562961 -0.24289985 -0.15598 -0.34111616
0001f0 f1 d0 d1 3d 69 2e 3c bd 27 98 6e 3e 42 19 27 be
       0.102449305 -0.045942698 0.23300229 -0.16318229
000200 01 e3 58 3e f9 80 e1 bd d6 81 9c be cc 72 8c 3e
       0.21180345 -0.11010928 -0.30567807 0.27431333
000210 6f 9c 11 be 00 cc 87 be 93 0b a9 3d 7a 3e 03 3e
       -0.14219831 -0.26522827 0.08254161 0.12816802
000220 08 bd 2f 3e d1 1b 9f bd 5b f9 3e 3e d1 fe 4e 3d
       0.17161953 -0.077689774 0.18649809 0.05053598
000230 fa ef 4a 3e ef 04 ac 3e 52 62 32 bd ab 18 8c bd
       0.19818106 0.33597514 -0.043550797 -0.068406425
000240 b5 82 56 3e 7c c0 45 be a0 e1 13 be 6f b7 96 3e
       0.20948298 -0.19311708 -0.14441538 0.29436824
000250 ee 61 65 3e a0 97 aa 3e fb f6 6d be dc cd 5e 3e
       0.22400638 0.33318806 -0.23238747 0.21758217
000260 25 85 b5 bd 55 d3 a5 3e 72 70 34 3d 08 38 8e bd
       -0.08863286 0.32387796 0.04405255 -0.06944281
000270 4d 74 83 3e 02 c8 4b be 5a 9b 83 3e c3 f0 1b 3e
       0.25674668 -0.19900516 0.2570446 0.15228562
000280 54 19 aa be 08 e9 29 3e 96 83 04 bd 6b 4b c1 bd
       -0.3322245 0.165928 -0.032352053 -0.09438213
000290 e9 4c 20 be 4d a3 af be ba 33 86 bd 12 85 14 3d
       -0.15654339 -0.34304276 -0.06552835 0.03625972
0002a0 2b ce ee bd 61 b4 1c be 4a 1a 31 bd 46 46 38 3d
       -0.11660417 -0.15303184 -0.04323796 0.044988893
0002b0 4d 0a de bd 68 6a 0f be a9 9d 8e be b9 2d 75 3e
       -0.108418085 -0.14005435 -0.2785466 0.23943223
0002c0 c6 78 b1 be 3c e2 f6 3b e8 4b db 3c e2 b2 a6 be
       -0.34662455 0.0075342935 0.026769593 -0.32558352
0002d0 0c 8d fc bd 33 5d 4f 3e e9 1b 44 be c3 15 a8 3e
       -0.1233159 0.20250396 -0.19151272 0.32829103
0002e0 ce 8b 0f be c1 35 9f bd 80 9d bf bd 89 0d 44 3e
       -0.14018175 -0.077739246 -0.093562126 0.19145788
0002f0 c3 d3 9b be 37 6e b8 bd 7c e8 87 3c df ee fe 3d
       -0.30435 -0.09005397 0.01659035 0.12447905
000300 a7 33 b4 be 2d 80 5e be d1 e1 3f be 47 e9 a3 3e
       -0.35195658 -0.21728583 -0.18738486 0.32013914
000310 9f 36 9b 3e fe f8 9e 3e e5 86 9a bd 63 b3 10 3e
       0.3031511 0.3104934 -0.0754526 0.1413093
000320 87 b6 f2 bb 89 8a 85 3e 3e b6 9a be cc f9 b4 bd
       -0.007407013 0.26082256 -0.30217165 -0.088367075
000330 f6 64 9a 3e 57 a0 04 3c d6 e2 eb 3d b2 4f 9a be
       0.30155152 0.008094869 0.11517875 -0.30138928
000340 96 5f 01 be e4 af 99 be 23 88 da 3d f0 f8 85 3d
       -0.1263412 -0.30017006 0.10670497 0.06541622
000350 28 02 b1 be b0 5e b9 bd c8 ba c5 bd 6b 8c 83 be
       -0.34571958 -0.09051263 -0.09654766 -0.25693068
000360 3d 53 aa 3e 83 c1 b5 3d 23 12 3f be 9b 6d 7d 3e
       0.3326663 0.088748 -0.18659262 0.24748842
000370 c7 85 00 be 81 5a 3f 3e fe 79 35 bc c6 f7 55 be
       -0.12551032 0.18686868 -0.0110764485 -0.208953
000380 dd b0 13 3e 44 6d ac be 53 ec 27 3d ad 4f b2 3e
       0.14422937 -0.33677113 0.04099686 0.34826413
000390 7e 46 94 3e ce a5 6e 3c 83 0e 3c bd cc 60 b2 bd
       0.2896003 0.014565898 -0.045912277 -0.08709869
0003a0 ad 2b 43 3e 5b 1a b9 3c bb 68 91 3e 37 0c 50 be
       0.1905963 0.022595575 0.28400216 -0.2031716
0003b0 bf f1 88 be 72 30 f4 bd 07 90 79 3e 1b cc 6b 3e
       -0.26746938 -0.11923303 0.24371348 0.23027079
0003c0 c8 86 45 3e 28 29 82 be 56 a0 b2 3e 86 50 66 3e
       0.19289696 -0.25422025 0.34887952 0.22491655
0003d0 50 d8 a6 be 2b e4 0b 3e 59 0e 73 3e bd 1e 6a bd
       -0.32586908 0.13661258 0.23735942 -0.05715822
0003e0 3a 50 ae 3d 28 a8 79 bd 66 55 82 3e 2d cc 8b 3e
       0.08511396 -0.060951382 0.2545578 0.2730421
0003f0 3d 10 63 bd dd 35 8e 3e 4b 2e ae 3d 7d 7e c9 bd
       -0.055435408 0.2777547 0.085049234 -0.09838579

model.0.bias f4 [256]
000000 ec ec b8 ba d8 fb 13 3e a9 66 0c 3e 10 f5 af be
       -0.0014108694 0.1445154 0.13711037 -0.34366655
000010 ad dd 09 be 2a b9 97 be 67 26 a8 be b2 3c 69 3e
       -0.13463469 -0.29633456 -0.328418 0.2277706
000020 3b f0 8b 3e dc e0 80 be e1 44 0f be 0e 90 37 3e
       0.2733172 -0.25171554 -0.13991119 0.17926046
000030 8e 07 a9 3e 9d e5 98 3e 10 b6 60 3e 71 b7 9b be
       0.33013576 0.2986268 0.21944451 -0.30413392
000040 a1 ef 49 be c5 a5 8d 3e 85 8b a2 be 94 26 17 be
       -0.19720317 0.27665535 -0.3174707 -0.1476081
000050 b0 a2 8f be bc 91 8f be d9 36 b7 3d 62 81 db bd
       -0.28053808 -0.28040874 0.08946008 -0.10718037
000060 12 9f a6 be 66 46 8c be 87 3f 99 3e 76 78 95 3e
       -0.32543236 -0.2739746 0.2993128 0.29193467
000070 81 a7 2b 3e 10 71 20 3e cc b7 55 be c0 24 05 be
       0.16763116 0.1566813 -0.20870894 -0.130023
000080 e5 5d 8c bc 33 34 0a 3e 28 dd cb ba 44 c1 b5 3d
       -0.017134616 0.13496475 -0.0015553581 0.08874753
000090 3e 31 3a be 13 de 06 be d6 12 07 3e 8b dc a6 be
       -0.18182847 -0.13170652 0.13190779 -0.32590136
0000a0 43 9d 87 3c ca 9d a0 3e 5d 53 65 be de be 9c bd
       0.01655448 0.31370384 -0.22395082 -0.076535925
0000b0 13 28 84 bd 99 eb 06 be 11 48 53 3e d1 78 a3 3d
       -0.06452956 -0.13175811 0.2063296 0.07982028
0000c0 30 9a ad 3e 30 1e bf bd fd 84 03 3e 1e 45 ce 3d
       0.33906698 -0.0933193 0.128437 0.10071777
0000d0 a1 e3 46 be c9 c9 b1 be 14 20 4a 3e 98 9e 70 be
       -0.19422771 -0.34724262 0.197388 -0.23497999
0000e0 e8 88 f3 bd 7b d7 98 bd a1 ee ab be b9 f4 65 3e
       -0.11891347 -0.07462975 -0.33580497 0.22456636
0000f0 ab 87 b7 bd 7c d2 39 be df d2 a2 be 84 aa 35 3d
       -0.089614235 -0.181467 -0.31801507 0.04435207
000100 30 92 b2 bb 2e 11 5f bd 8f e3 06 be 51 98 0c 3e
       -0.005449556 -0.054459743 -0.13172744 0.13729979
000110 3e cb 95 bd e3 f7 11 3d 28 da 66 3e 56 c3 c4 3d
       -0.07314156 0.035636794 0.22544158 0.0960757
000120 5f 61 83 be 12 33 72 bd 07 33 02 be ca fd f0 3c
       -0.25660226 -0.059130736 -0.12714778 0.029417891
000130 70 d9 5e 3e 6a f9 04 bd 52 30 08 be 4b 40 42 be
       0.21762633 -0.032464422 -0.13299683 -0.18969838
000140 af 18 4c 3e 93 c6 cc bd cf 47 9e 3c c3 3d 90 bd
       0.19931291 -0.099988125 0.01932135 -0.0704303
000150 1a d6 86 be f7 6c 05 3e 8a 44 91 3e c6 4b 54 be
       -0.26335222 0.13029848 0.28372604 -0.2073203
000160 e7 7f 40 3d 26 9b df 3d ac 36 c9 bd 42 82 7a bd
       0.046996977 0.10918264 -0.09824881 -0.06115938
000170 e6 1e cc bb 83 04 52 3e 5d f5 87 bc 5b 42 b4 be
       -0.0062292693 0.20509534 -0.01659649 -0.35206875
000180 fa b8 e1 bd ac fe 1b be b6 50 c8 bc 87 01 43 be
       -0.110216096 -0.15233868 -0.024452548 -0.19043551
000190 cf bf 62 3d 79 f9 6a bd a3 e5 2f be d1 d7 21 bd
       0.055358704 -0.057366822 -0.17177443 -0.03951246
0001a0 9f ba 8a be 45 5e 32 be 7b f3 37 3e a0 a0 0f 3c
       -0.27095506 -0.17418773 0.17963974 0.008766323
0001b0 89 48 41 3e e3 6e be 3d 8e 61 68 3e ba 9c a7 3e
       0.18875326 0.09298494 0.22693464 0.3273676
0001c0 13 3e 8f 3e 8b 50 ad bd 40 2b 11 be bc 16 8b 3e
       0.27977046 -0.08462628 -0.14176655 0.27165782
0001d0 70 e4 31 3e d8 93 9c 3e 54 c7 a5 3e 2e a7 7f 3e
       0.17372298 0.30581546 0.32378638 0.24966118
0001e0 7c 55 33 3d f2 b2 28 bc d6 51 41 be d0 96 ae 3e
       0.043782696 -0.01029657 -0.18878874 0.34099436
0001f0 24 ef 3d be 78 69 50 3e a7 d0 17 bd dd a4 49 be
       -0.18548256 0.20352733 -0.03706422 -0.19691797
000200 b6 4d 84 be 66 98 ac 3d fe d8 f0 bd fd 7b 52 3e
       -0.2584054 0.08427505 -0.11760138 0.2055511
000210 a9 4a 28 be 41 ca 7e bd 45 c1 dc 3d 22 a4 a7 3e
       -0.1643473 -0.062204603 0.10779051 0.3274241
000220 13 d4 9a be 8d 33 51 be ee 5d 50 be c6 4e c8 3d
       -0.30239925 -0.20429821 -0.20348331 0.0978065
000230 5c 89 93 3e 83 b3 73 3d 36 f6 2e 3d 6b 1e 73 3e
       0.28815734 0.059497368 0.042715274 0.23742072
000240 4c e6 87 be 4d 21 af 3e ac 89 b1 3e e6 ac 79 be
       -0.2654289 0.34205094 0.34675348 -0.24382362
000250 7d 60 8d bc 64 18 1d 3e 24 bd 68 be 53 de 2b be
       -0.017257923 0.15341336 -0.22728401 -0.16784029
000260 c3 eb 80 3e f4 bd 89 3e 6e 6e 88 be d2 f2 1d 3e
       0.25179872 0.26902735 -0.2664675 0.1542466
000270 c7 cb 38 be cb c2 3a bd 2b 0b b4 be fd 71 98 be
       -0.18046485 -0.045595925 -0.3516477 -0.29774466
000280 c5 92 0e bd fc 4f 79 be da 3d 40 be 2c 7b 33 3e
       -0.03480794 -0.24346918 -0.18773594 0.17527455
000290 8e 07 51 3e fe ce 84 be b8 52 7e 3e 21 76 b1 3e
       0.20413038 -0.25939173 0.24836242 0.34660438
0002a0 8a e5 a9 bd fd 85 0c 3e 4f dd 34 bd dc 2d ad bc
       -0.08295734 0.13722987 -0.04415637 -0.021140032
0002b0 65 bd b2 bd 60 31 b6 3d 81 1b a8 3e 5a bb e7 bd
       -0.087275304 0.08896136 0.32833484 -0.11315031
0002c0 d5 72 e5 bd a8 4f ad 3e 7c 64 88 3e 2d 4b 71 be
       -0.11203543 0.33849835 0.26639163 -0.23563834
0002d0 51 37 a3 3e c6 89 87 bd 6e c3 c9 3d 0d 37 43 3d
       0.3187814 -0.06618075 0.098517284 0.047659922
0002e0 9c bd 2f bd 2e 2d 59 be 4b 44 30 3c fa 16 80 be
       -0.042905435 -0.21208641 0.01075847 -0.2501753
0002f0 0e 46 91 bd 0f c5 50 3e 8d 81 85 3e e2 d4 6d be
       -0.0709344 0.20387672 0.26075402 -0.2322574
000300 af cf 1f 3e b4 8c 36 bc f3 94 85 3e 94 6d 7c 3e
       0.15606569 -0.011141945 0.26090202 0.24651176
000310 bf ca dc bd aa a1 3f 3e 49 62 d1 3d a4 11 18 3e
       -0.10780858 0.18714014 0.102238245 0.1485048
000320 35 ea 63 be a1 a5 4e 3d bc 64 96 be 28 48 41 3e
       -0.22257312 0.050450925 -0.2937373 0.18875182
000330 26 8a b8 bd f6 53 14 3e 61 34 85 3e 93 52 38 3d
       -0.09010725 0.14485154 0.26016524 0.045000624
000340 eb b8 8c be 56 2f 82 be 06 4d 49 3d 4d 16 b1 be
       -0.2748483 -0.2542674 0.04914572 -0.34587327
000350 57 eb 47 3e f6 7f b6 bd 55 f3 8d be 84 37 68 3e
       0.19523369 -0.08911125 -0.2772471 0.22677428
000360 b1 79 3c 3d af f6 a3 3e e3 07 c7 3b a8 5e 0d 3e
       0.04601449 0.32024142 0.006073938 0.1380564
000370 cd 25 48 3e f1 11 2c 3e 92 61 24 be a9 67 93 be
       0.1954567 0.16803719 -0.16052845 -0.28790024
000380 e3 80 be bc a2 12 a7 3e 10 18 64 3e db ed f1 bd
       -0.023254817 0.32631403 0.22274804 -0.118129455
000390 67 ea 01 be 06 0d 7a 3e 73 fb 65 3e 96 53 22 3e
       -0.12687074 0.2441903 0.22459202 0.15852198
0003a0 2d 2e 9c be ac b2 a6 be 30 d9 78 3e 41 33 9a 3e
       -0.3050398 -0.3255819 0.243016 0.3011723
0003b0 3b c4 a1 3e e4 85 3c 3e 14 56 05 be d1 43 0b bd
       0.31595024 0.1841045 -0.13021117 -0.03400022
0003c0 90 5c a3 3e cb 36 79 bc 7b e1 53 be 4b 65 1e 3e
       0.31906557 -0.015210818 -0.20691483 0.15468328
0003d0 61 0e 75 be d0 e5 c1 3d 91 2a 24 be dd f0 84 bd
       -0.23931266 0.094676614 -0.16031863 -0.064912535
0003e0 a6 f3 26 3e f7 5e 2b be d6 d6 9d ba 22 96 99 be
       0.16303882 -0.16735445 -0.0012042176 -0.29997355
0003f0 fa 36 64 3d 87 9e f8 bd 7f 21 08 3e 9d f0 8d 3e
       0.055716492 -0.12139612 0.13294028 0.27722636

model.2.weight f4 [64, 256]
000000 28 50 21 bd 71 83 6f 3d 81 ef c6 3c b8 0a 6a 3d
       -0.039383084 0.05847496 0.024284126 0.05713913
000010 d1 08 e8 3b 2c 57 1e bd 38 13 43 bd ec 92 52 3d
       0.007081129 -0.038657352 -0.04762575 0.051409647
000020 8e 89 14 bd 56 9c 22 bd ac 6e ab bc f6 6b 7c bd
       -0.036263995 -0.039699875 -0.020926796 -0.061626397
000030 c5 96 0d 3a e8 ac cc ba cc 35 38 3c 22 0b 6e ba
       0.00054011896 -0.0015615495 0.011243295 -0.00090806384
000040 e1 3a 12 bd b4 b8 57 3d a6 53 f1 bc 58 be 63 bd
       -0.035700683 0.05266638 -0.029458832 -0.055601448
000050 74 d8 41 3d e1 88 4d bd c6 a9 3e bd 08 07 6b bd
       0.047325566 -0.050179366 -0.046548627 -0.057379752
000060 9f 4d 12 3d c7 c9 74 3c 99 29 4b 3d 8e 9c 1e 3d
       0.035718556 0.014940686 0.049600217 0.03872352
000070 5c 50 12 bd 43 ca 55 3c e7 c3 c1 3b 35 47 16 3d
       -0.035721168 0.013048711 0.005913246 0.036689002
000080 fb a7 f5 bc 9b e5 54 3d 52 4e 4b bc 06 e6 10 bd
       -0.029987326 0.05197678 -0.01240881 -0.035375617
000090 8f fd b2 bb cf d3 fb 3c ba bd e4 3b f9 66 4d 3d
       -0.0054623554 0.030740647 0.006980625 0.05014703
0000a0 af 56 a8 3c ae a3 5c 3d 44 72 a1 3c 90 c0 80 bd
       0.020549146 0.053867035 0.019707806 -0.062867284
0000b0 94 3a 8f bb f1 58 8b bc de 10 51 3d fe da 5f 3d
       -0.0043709967 -0.017010184 0.051041476 0.054652207
0000c0 be fc 8f 3c 0c 4e f9 bc 6a de b1 bc 66 4e 28 bd
       0.017576572 -0.030432723 -0.0217125 -0.04109039
0000d0 42 23 62 bd ab 00 01 bd 2f 65 43 3d 3e cb ce 3c
       -0.055209406 -0.031494778 0.047703918 0.025243398
0000e0 b3 ae 2f 3c b5 a1 5b 3d a6 2d c6 bc 7c e7 65 3d
       0.010722804 0.053621013 -0.024191689 0.056128964
0000f0 f2 a1 1f bd 7b c4 47 3c 79 35 84 bc 43 d0 e0 3c
       -0.038972802 0.012192841 -0.016138779 0.027443057
000100 44 ea 99 3c 0b 6d fb 3c ae ce 32 3c 39 e9 4c bd
       0.018788464 0.030691644 0.010913534 -0.050027106
000110 1c 79 16 3d e2 bc 8c 3c 06 24 ef 3c 3f 0b 57 bd
       0.036736593 0.01717991 0.029191982 -0.05250096
000120 07 b2 76 bd 76 f2 1c 3d 54 b3 2c 3d 82 8b fc bc
       -0.060228374 0.038317166 0.042163208 -0.030828241
000130 fb 6b ab bc cf d1 b8 3c b8 33 18 bc 7d 4b 3d bd
       -0.020925513 0.022560982 -0.009289674 -0.04621457
000140 b5 ef 56 bd bc af 9d 3c 99 c9 5b 3d db 07 72 3d
       -0.052474696 0.019248836 0.053659055 0.059089523
000150 60 33 09 bd 6d 63 53 3d 4b 46 b9 3a 27 24 82 3c
       -0.03349626 0.05160849 0.0014135329 0.01588638
000160 1f 74 4e bd 08 2b 24 bc d7 97 8f bb 3b 30 13 3c
       -0.05040371 -0.010020025 -0.0043821144 0.008983667
000170 e1 07 54 3c f0 a8 b6 3a 59 aa 29 bb d2 c1 14 3c
       0.012941332 0.0013935845 -0.0025888889 0.0090794135
000180 ca 4c 0d bd f8 3c 3b 3d 46 ca 1e bd f4 70 3e 3c
       -0.03449706 0.04571244 -0.03876712 0.01162361
000190 6d a5 42 bd a1 69 66 3c 5a e2 5d 3d 41 5e 41 bd
       -0.047521044 0.01406327 0.054170944 -0.04720903
0001a0 01 1a 11 3d 2a 9e 23 3d 36 24 22 3d 34 8b 61 3d
       0.03542519 0.03994576 0.039585315 0.055064395
0001b0 75 71 3b bd 77 09 7a 3d 86 01 e7 bc d4 8f 33 bc
       -0.045762498 0.061044183 -0.028198969 -0.010959584
0001c0 a9 c6 af 3c 0b a2 1b bd 9a 16 03 bc 54 33 71 3d
       0.021457033 -0.037996333 -0.008000994 0.05888684
0001d0 8c ee cc 3b a3 c0 14 bd 6c d6 d8 bc a4 86 c0 3c
       0.006254023 -0.036316525 -0.026469432 0.023501702
0001e0 05 87 87 bc e6 91 01 bd 30 4a b9 3c f3 e5 4b 3c
       -0.016543875 -0.03163328 0.022618383 0.012444961
0001f0 e6 2e 23 3d 54 53 1b bb b0 86 03 3d fd d2 95 bc
       0.039839648 -0.002370079 0.03211087 -0.018289084
000200 f3 dc 18 3d 51 36 06 bc 4b 0d 63 3d 57 cc 59 bc
       0.03732009 -0.008191661 0.0554326 -0.013293347
000210 14 b6 5d bd b6 8a 9f 3b 3c 12 bf 3c 6e 15 54 3d
       -0.05412872 0.0048688306 0.023324125 0.05177825
000220 f1 ff 65 bd 9f 8f 36 3c dc 5c 2d 3d a2 20 a0 bc
       -0.056152288 0.01114264 0.042324886 -0.01954681
000230 e4 f9 7d bc 4b ad 82 3c 88 af 2b 3d a8 d5 45 3d
       -0.015501473 0.015951773 0.041915447 0.04829946
000240 87 6d 58 3d fe e1 88 3b bc 49 11 3d 8e 23 e8 bc
       0.05283883 0.004177331 0.03547071 -0.028337266
000250 f5 3f 15 bd a0 f5 46 3d 91 6b 47 bd 6b b3 7c 3d
       -0.036437947 0.04857409 -0.048686568 0.061694544
000260 3d dc 53 3c 6a 09 32 3c 3f eb 7b bc 91 36 e2 bc
       0.012930927 0.010866502 -0.015375911 -0.02761391
000270 a7 b1 40 bc fe ef 15 3d fe 4c 35 bd a7 52 06 bd
       -0.011761106 0.036605828 -0.04426288 -0.032793667
000280 98 64 59 bd e7 99 72 3c 8d 70 e7 3c b5 c1 6e bb
       -0.05307445 0.014807201 0.02825191 -0.0036431376
000290 a5 fe 5c 3d 30 22 95 3c 7b 2a 19 bc a8 f3 d4 bc
       0.053953785 0.018204778 -0.009348507 -0.02599509
0002a0 c7 da 13 bc 35 a0 03 3d c0 91 36 3c b5 fe 7a bd
       -0.009024329 0.032135207 0.011143148 -0.061278064
0002b0 b4 e0 4a bd 51 8f 4d 3d 03 e0 8c bc 1c 8e 48 bd
       -0.0495307 0.050185505 -0.01719666 -0.04896365
0002c0 31 b5 5f bb 16 64 03 3d 6e 86 62 bd 1d 24 89 3a
       -0.0034135098 0.03207787 -0.055303983 0.0010463033
0002d0 ba 17 74 bd 60 73 28 3c c2 cd 6c 3d b4 fd 92 bb
       -0.05959294 0.010281414 0.057813413 -0.00448581
0002e0 e0 c3 54 bd ba 75 86 3c 5e 37 63 bd 8b a9 ea 3b
       -0.051944613 0.016413558 -0.055472724 0.0071613244
0002f0 8c ab 80 bc 80 70 0d 3d f0 cb 0b 3d aa 5c c1 bc
       -0.0157068 0.034531116 0.034130037 -0.023603756
000300 9c 4a 4b 3d 61 fd 1a 3c 76 50 3e 3d bb cb 1f bd
       0.0496317 0.009459824 0.046463452 -0.039012652
000310 b2 9c f2 3c 79 36 e6 3c 90 45 4d bd e9 4a 3e bd
       0.029615734 0.028102146 -0.050115168 -0.04645816
000320 da 1c 6c 3d 48 c8 c2 3c ea 27 40 bd df 44 1d 3d
       0.057644702 0.023777142 -0.046913065 0.03839576
000330 1e e1 2b bd b0 ae 14 3c 02 e5 7b bd 82 3d f6 bc
       -0.041962735 0.009074852 -0.061497696 -0.030058626
000340 95 66 5a 3c b7 0e 6a bc e7 13 cd 3c 3d 61 0c 3c
       0.0133301215 -0.014285735 0.025033904 0.008568105
000350 42 bf f8 3b 2b 50 a7 3c 58 d9 82 3c 9e 38 75 bd
       0.007591159 0.02042397 0.015972778 -0.059868447
000360 9d ac fa 3c 8c bb 2d bd 85 92 68 bc 53 a2 0e bc
       0.030599887 -0.042415187 -0.014195089 -0.008705693
000370 4f 8c 30 bd 16 7d 4d bd 86 1f 66 3d 16 1b 95 bc
       -0.04310256 -0.05016812 0.056182407 -0.018201392
000380 51 24 b7 3c 6a 39 82 bc c1 49 59 bd 43 43 16 bd
       0.022356184 -0.015896518 -0.053048853 -0.03668524
000390 eb 1b 02 3d 8f e9 d0 bb 27 10 21 bd bf d8 f2 3c
       0.031764906 -0.0063754986 -0.039322045 0.029644368
0003a0 3b 52 e9 3c 42 5b 2a bb 31 99 f4 3b ad 65 bc bc
       0.028481593 -0.0025994335 0.007464551 -0.022997702
0003b0 f9 32 df bc b0 9a 44 bd 35 0c 32 bd bb 90 4a 3d
       -0.027245985 -0.047999084 -0.043468673 0.049454432
0003c0 cd c7 7f 3c 07 00 4d 3d 90 75 76 bc 14 f7 e6 ba
       0.015611601 0.050048854 -0.0150426775 -0.0017621242
0003d0 05 3d 52 3b 39 ea 57 bd ab c0 60 3d 84 62 2b 3b
       0.0032079828 -0.052713607 0.054871242 0.002615125
0003e0 37 9d 62 3d ca 27 3d bc 1e 80 0d 3d ae 6b 72 3d
       0.055325713 -0.011545131 0.03454601 0.059184723
0003f0 e6 d5 6d 3d f4 e1 67 3d 1f bd 04 3d 08 10 f5 ba
       0.058065318 0.05661197 0.032406922 -0.0018696794

model.2.bias f4 [64]
000000 a1 06 02 bc 0f 2b b3 3c bc 40 6a 3d 8a 06 6f 3d
       -0.007936151 0.021871118 0.05719064 0.058355846
000010 d4 65 86 3c 01 99 6a 3d 42 26 f2 bc 1a cb 52 3c
       0.016405977 0.057274822 -0.029559258 0.012865806
000020 0e bf 0d 3d 89 68 85 bd a1 6f 70 bd e9 bf 47 bd
       0.034606032 -0.06514079 -0.058700208 -0.048767004
000030 c1 3d 61 bd 68 e1 9a 3c 12 2a 5f 3a 79 cf 3d bc
       -0.054990534 0.01890631 0.0008513044 -0.01158511
000040 cd cf c8 bc 32 95 61 bd 61 c3 11 bd 8f 21 78 3d
       -0.02451315 -0.055073924 -0.03558672 0.06057888
000050 92 81 99 bc 50 d4 9b 3b 4a 05 dc bc b3 fe f1 bc
       -0.018738542 0.004755534 -0.02685799 -0.029540395
000060 1e 9f 24 3d d9 1d 69 bc d9 dd f6 3b 57 6e 39 3d
       0.04019081 -0.014228308 0.0075337705 0.045271244
000070 d2 b6 21 bc 92 56 a4 3c f0 cf 13 bd 2d a4 29 3d
       -0.009870248 0.020060811 -0.036086977 0.041416336
000080 1d 3d f4 bb 8c 2f 09 3d 0b 33 5f bd 24 70 a8 3a
       -0.0074535743 0.03349261 -0.054492038 0.0012850803
000090 b6 1f 9d 3c 44 0a 2f bd c5 82 37 3d f4 0a 07 bd
       0.01918016 -0.0427344 0.044802446 -0.03296943
0000a0 ab 65 d2 bc 6a d5 1e 3d 93 28 f7 bc 1f 1b 38 3d
       -0.025683245 0.038777746 -0.030170714 0.04494774
0000b0 ce a5 37 3d 0f c9 ed bb 84 a3 84 3c 3e 0b 27 bd
       0.044835858 -0.007256634 0.016191252 -0.040782206
0000c0 15 51 10 bd 8a 54 e2 bb 98 ed 4f 3d 08 cf 39 3d
       -0.035233576 -0.0069070505 0.050763696 0.045363456
0000d0 d9 b6 5c 3d 67 10 db bc ba 37 39 bd 9f 55 2e 3d
       0.053885315 -0.02674122 -0.04521916 0.042562123
0000e0 2c 81 09 3d 86 7b 6a 3d 94 92 73 3d 1b f7 0f bd
       0.033570454 0.057246707 0.05946596 -0.035147768
0000f0 af 33 4a 3d 6b 73 62 3d cf 40 46 bc 62 5f 0d bd
       0.049365696 0.055285852 -0.0121004125 -0.034514792

model.4.weight f4 [8, 64]
000000 32 41 95 bd 2d f5 81 bd da c6 9f 3d a7 cd 27 3c
       -0.07287826 -0.06345592 0.078016 0.010241902
000010 d6 9d 04 bd 4b ae bb bc 66 52 d9 3d 28 d8 a6 3c
       -0.032377087 -0.022910258 0.106114194 0.020366743
000020 78 be 93 bd 80 c5 6b 3d 34 19 95 bd ef fb ac 3d
       -0.072140634 0.057561398 -0.07280198 0.0844649
000030 23 3a ee bd 68 56 1f 3d 38 c4 78 3d 07 cf b7 3d
       -0.116321824 0.038900763 0.060734004 0.08975034
000040 81 b7 37 bc 74 45 4b 3d 22 16 50 bb 22 87 d6 3d
       -0.011213184 0.049626783 -0.0031751473 0.10474993
000050 84 4b 02 bd 71 8f d6 bd e2 40 24 bd 41 73 e0 3c
       -0.0318103 -0.10476578 -0.04010094 0.027398707
000060 0c c5 36 3c b9 db c5 bd f9 31 5a bd d3 b2 2b 3d
       0.011155378 -0.096610494 -0.053270314 0.041918587
000070 d8 bf 19 3d 3d b0 ee 3d 83 17 cd bc f1 7b 21 3d
       0.037536472 0.116547085 -0.025035625 0.03942484
000080 5f 40 96 bd 74 57 02 be fe aa 53 38 6d 95 21 bd
       -0.073364966 -0.12728673 5.046557e-05 -0.039449144
000090 01 4b d9 3d 2f f3 d4 bd e1 39 d2 bd 50 8d 90 bd
       0.10610009 -0.10397946 -0.10264946 -0.07058203
0000a0 1b 3f 7a bc 87 a1 ab 3d 11 2e b2 3d c8 cf 65 bc
       -0.015273835 0.08380418 0.08700193 -0.01402659
0000b0 3a 9c 66 3d 02 42 9d 3d 95 8f 18 bd 04 41 86 bd
       0.056301333 0.076786056 -0.037246305 -0.065553695
0000c0 5b be ba 3c 5a f1 ae bd 00 a6 da 3d fd 10 2f 3d
       0.022795847 -0.08542128 0.10676193 0.04274081
0000d0 28 7f 3a bc d7 b2 1e bd da 97 40 3c 1a 4c 5c 3c
       -0.0113828555 -0.038744774 0.011754954 0.013445878
0000e0 0f 27 d1 bd 3d 4d f2 bd 4b 2b a3 bc 9b c8 94 bd
       -0.10212528 -0.11831138 -0.019918105 -0.07264825
0000f0 2d 9e a1 bd fe 3b 76 3c 89 14 b6 3d 09 2c ae bd
       -0.07891498 0.015028952 0.088906355 -0.08504493
000100 93 3b e5 3b 64 bc 21 3d 0b e4 ba 3d e4 4d a4 3d
       0.006995627 0.039486304 0.09125527 0.08022669
000110 80 d0 01 bd ac c6 8d bd 1e 1e d7 3d 95 58 b3 bd
       -0.03169298 -0.06922659 0.10503791 -0.0875713
000120 98 45 bc 3b 36 02 e5 bd 1a 61 24 3b c5 b8 c3 bd
       0.005745601 -0.11182062 0.002508229 -0.09556726
000130 1a b2 30 bd 5c 68 ed bb e7 b3 7f 3d 37 ab fd 3b
       -0.0431386 -0.0072451066 0.062427428 0.0077413577
000140 1c eb 33 3d 53 02 96 bd d9 e9 03 be 75 35 d4 bd
       0.04392539 -0.07324662 -0.12882175 -0.103617586
000150 49 ee 8c 3d fa d5 16 3e 4b 1c d2 bd 7c 47 98 bd
       0.06881387 0.14730063 -0.10259303 -0.074355096
000160 43 ab 37 3d fe 53 03 3e 2f 3a b1 bd de 10 8d bd
       0.044841062 0.12825009 -0.08653676 -0.06887983
000170 3a 5e fa bd 9a 38 75 3d 91 d8 86 bc 3d 62 22 bc
       -0.122250035 0.059868433 -0.016460689 -0.009911117
000180 20 8c 70 3d f3 6f 33 bd 12 d6 92 bd 14 ca 20 be
       0.058727384 -0.043807935 -0.07169737 -0.15702087
000190 d6 79 0f 3e a0 81 0b bd 86 1f b8 3d 5f f3 94 ba
       0.1401132 -0.034059167 0.089903876 -0.0011364034
0001a0 56 dc 8a bd ee ea 1f 3d 40 05 cb 3d 6a 1d 02 3d
       -0.06780307 0.039042406 0.09913111 0.031766333
0001b0 c9 f8 c4 bd 27 51 cd bc e2 ba 41 bd e0 0c 64 3d
       -0.096177645 -0.02506311 -0.047297366 0.05567634
0001c0 49 76 cf bd 8b d3 1a bd ee f6 ba bc e5 ee c7 3d
       -0.10129983 -0.0377994 -0.022822823 0.097623624
0001d0 3f 43 5c 3d 40 8c 80 3d c8 91 59 bd 90 29 15 3c
       0.05377507 0.062767506 -0.053117543 0.009104148
0001e0 3f c8 01 3d ed 7e d4 bd 28 6c a3 3c 6d 65 f9 bd
       0.03168511 -0.10375772 0.019949034 -0.121775486
0001f0 52 52 c5 3c 12 8d bf bd 48 21 bd bb b6 c1 b5 bd
       0.024087105 -0.09353079 -0.0057717897 -0.08874838
000200 fe c2 ac bd 01 0b f7 3d 7c 99 c2 bb 89 ff 00 bc
       -0.08435629 0.12062646 -0.005938707 -0.007873424
000210 c2 1e e7 bd ef 8e be bd a6 bc 9b 3c 4f 4d eb 3d
       -0.112851635 -0.09304606 0.019010853 0.11489355
000220 16 72 a5 bd 29 f5 0d 3e 3a a4 20 bb c0 c5 b4 3d
       -0.08078401 0.13863052 -0.002451195 0.0882678
000230 77 94 00 3e e4 b2 c4 bd 1c 2b ce 3d 03 ac bc 3d
       0.12556635 -0.09604433 0.10066816 0.09212496
000240 d0 66 c8 bd 8a 65 ec bc 0c 11 b3 bd 77 ff ec bd
       -0.09785235 -0.028857011 -0.08743486 -0.115721636
000250 7f 90 a7 bc 75 c0 33 bd d7 4c b4 3d c3 c8 4c bd
       -0.020454643 -0.043884713 0.088037185 -0.04999615
000260 14 51 d2 bd 0e b4 e9 bd 60 29 37 3b bb 8e e2 bc
       -0.10269371 -0.11411296 0.0027948245 -0.02765595
000270 24 bd 05 3d 18 a4 ef bd 8d ee c8 bd ce 32 26 3c
       0.03265108 -0.1170122 -0.09811125 0.010143949
000280 23 40 ae 3c fa fd c6 3d 6d 40 5b bc 1c 01 56 bd
       0.021270817 0.09716411 -0.0133820595 -0.05224715
000290 58 fc b0 3d 8a dd 9a bd 7c ae bb 3d df 9d cf 3d
       0.08641881 -0.075617865 0.0916414 0.101375334
0002a0 fa bb df 3d 0f 14 a8 3d 4b 39 57 bc f7 2f f3 bd
       0.109245256 0.08206951 -0.013136218 -0.11874383
0002b0 72 87 40 bd 97 49 be bd f4 fd 18 3d ec ce bb 3d
       -0.04700417 -0.0929138 0.037351564 0.091703266
0002c0 ef f9 55 3d 3c d7 41 3d 11 59 7b bd ba 12 c6 3d
       0.05224031 0.047324404 -0.061364237 0.096715406
0002d0 ee ab ad bc 30 b8 59 3c f5 78 25 bd af a9 b7 bd
       -0.021200147 0.013288543 -0.040398557 -0.089679115
0002e0 b7 68 f2 bd 0a 0d d3 3d 4f 65 3c bc 9e 74 f7 3c
       -0.11836379 0.103052214 -0.011498763 0.030206975
0002f0 c3 79 c9 bd 81 13 85 ba 2e 43 a0 bc 23 92 a1 bd
       -0.09837677 -0.0010152907 -0.019563284 -0.078892015
000300 ee c6 81 3d d9 dd e8 3d 4b 3c be bd 2b 5e d4 3c
       0.06336771 0.11370439 -0.09288844 0.025923809
000310 76 7b c2 3d ab d3 65 bc 68 b4 84 bd 31 40 ca bc
       0.094962046 -0.014027516 -0.06479722 -0.024688812
000320 29 6e 2b 3a 5f 04 14 3e 79 bf e8 3d de 07 53 bd
       0.00065395475 0.14454792 0.113646455 -0.051521175
000330 a9 c4 08 3d a7 59 20 3c 9f 58 87 3d 34 1e 9b 3d
       0.033390675 0.009787 0.066087 0.0757412
000340 0b f1 f5 bc bc ef cd 3c 0a 1a 9b bd 61 17 fe 3d
       -0.030022165 0.025138728 -0.07573326 0.12406803
000350 e9 73 b0 3d 56 ef e7 3c 57 41 fe 3d c8 f0 5e bd
       0.08615858 0.028312366 0.12414806 -0.054428846
000360 51 19 27 bd 34 25 7b bd 34 3d 98 bc 86 58 9a 3d
       -0.040795628 -0.061314777 -0.018583871 0.07536416
000370 6e ba e9 3c 48 ee 33 bd d1 51 ae bd e8 3a 80 3b
       0.02853128 -0.043928415 -0.08511699 0.003913272
000380 fd cb e3 3d 33 7f 21 bd 73 2a b9 bd b8 28 11 3e
       0.11122892 -0.039427947 -0.090413 0.14175689
000390 83 9a 2f 3d 28 03 79 3d 15 63 fe bc be 5c d8 3d
       0.042871963 0.060794026 -0.031053105 0.10564564
0003a0 00 a6 88 bd 22 3d 24 3d 17 c0 b3 bd 17 4f 0f be
       -0.06672287 0.040097363 -0.087768726 -0.13995014
0003b0 0c da b3 bd e9 88 ea 3d 8f a4 f1 3d f6 21 8f bd
       -0.087818235 0.11451895 0.11798965 -0.069888994
0003c0 e8 02 10 bd 7d d1 a6 bd d4 f7 57 bd 2e 5c 8e 3d
       -0.03515902 -0.081454255 -0.05272658 0.06951176
0003d0 05 73 be bd d2 0f 03 3e da 6a 97 bd 0f a9 b1 3d
       -0.09299282 0.12799004 -0.07393427 0.086748235
0003e0 e1 b1 d0 bd 2c 90 60 bd ce c1 82 3d 16 80 92 3d
       -0.10190178 -0.054824993 0.063846216 0.07153337
0003f0 97 16 8a 3d 05 c1 45 3c 42 81 cb 3d 5b ac 10 3d
       0.0674259 0.012069945 0.09936763 0.03532062

model.4.bias f4 [8]
000000 a5 43 7c bd 0c d1 7c bd 54 6c 61 3d 25 27 36 3c
       -0.06158795 -0.0617228 0.05503495 0.011117731
000010 35 2a 01 3e 1a c4 f2 bc 78 2f f4 bb cc 19 a6 bb
       0.12613757 -0.029634524 -0.007451948 -0.005068993

model.6.weight f4 [1, 8]
000000 85 00 a4 bd 19 f3 a4 be 8f 2d 4f 3e 4f eb 54 3e
       -0.080079116 -0.3221672 0.20232223 0.20792888
000010 32 f1 8c 3d c3 ff 9a be 9c f7 ce 3e 64 d6 97 3e
       0.06881942 -0.30273256 0.40423286 0.29655755
