HW2/model300epoch_model2.pth (torch, 9487 bytes, 7 tensors)

model.0.weight f4 [64, 8]
000000 9c 2b 13 be 40 62 aa be aa 85 b6 3e 74 25 5f 3e
       -0.14372104 -0.33278084 0.35648853 0.21791631
000010 ad 24 88 be 6c 29 92 3e e4 b8 9a be b8 d9 3f be
       -0.2659048 0.28547227 -0.30219185 -0.18735397
000020 42 83 42 be 6b 63 66 3d 9f cc c8 3d 64 a5 10 be
       -0.18995383 0.056247156 0.098046534 -0.14125592
000030 42 e2 fc bd 97 ea 3f be 31 bd 8b 3e 16 ba 2c 3e
       -0.12347843 -0.18741833 0.2729278 0.16867861
000040 cd d2 ac 3c 2a e1 7f 3c 67 46 ce 3c af ca 9c bd
       0.021096611 0.015617648 0.025180055 -0.07655846
000050 63 5b 2a be 21 c8 a4 3e f6 27 0a be 20 65 64 be
       -0.16636424 0.32183936 -0.13491806 -0.22304201
000060 ff 9e 3e bd ed b1 d6 3d 8d f1 98 be 11 35 d0 3d
       -0.04653835 0.104831554 -0.2987179 0.101663716
000070 59 18 c3 bc 3a 90 24 be c2 23 43 3d 76 78 f1 3c
       -0.02381532 -0.16070643 0.047641523 0.029476386
000080 09 f6 b1 be 25 bc 27 3e ca fa 0b 3e 4a 29 4d be
       -0.34758022 0.16380365 0.13669887 -0.20035282
000090 27 41 dc 3d 75 b0 3c be 90 98 87 3e 8e 24 25 be
       0.10754614 -0.18426688 0.26483583 -0.16127226
0000a0 65 46 f8 3d dc d6 e5 3d dc 32 99 bc e5 4a 44 be
       0.12122802 0.11222622 -0.01870101 -0.19169195
0000b0 45 7e 28 3e a4 27 bf 3d f3 9b 26 be 97 00 54 bd
       0.16454418 0.09333733 -0.16270427 -0.051758375
0000c0 eb 6a 10 3e 9b aa 99 be d2 d0 5a 3d ae fc 9e 3d
       0.14103286 -0.30012974 0.053421803 0.077630386
0000d0 6f 14 b3 be f4 1c 58 3d f2 fb 8c be 5e b7 a3 be
       -0.34976527 0.052761987 -0.2753597 -0.31975836
0000e0 36 dc 9e 3e e1 13 3a 3e 1b a0 81 3e 01 48 a1 3e
       0.31027383 0.18171646 0.25317463 0.31500247
0000f0 ae 13 43 be 0f 7d 1a be 20 51 5f 38 6d 5a 11 3e
       -0.19050476 -0.15086769 5.3242897e-05 0.14194651
000100 a2 18 38 3d c4 11 f0 bc 2d 7e b3 3e af c9 34 be
       0.044945367 -0.029305346 0.35057202 -0.17655061
000110 ff d2 2a 3e 2f 84 12 3e 3a f0 31 be 51 8c 52 3e
       0.16682051 0.14308237 -0.17376795 0.20561339
000120 58 82 80 3e 04 b6 89 bd 95 66 77 be 58 c7 5a 3e
       0.25099444 -0.0672417 -0.24160226 0.21365106
000130 54 44 8b 3e 2f 41 05 3e 6f ec 28 3d fc 90 34 3e
       0.27200568 0.13013147 0.041241106 0.17633432
000140 67 35 ea 3d a5 0e db bd 76 32 86 be 75 b4 20 be
       0.11435967 -0.106961526 -0.26210374 -0.15693839
000150 3f af 03 3e 7f 5e 14 be c6 91 08 3e e5 01 39 be
       0.1285982 -0.14489172 0.13336858 -0.18067129
000160 e1 28 8d be dc 36 7d 3e d7 ea 61 be 93 41 e6 3d
       -0.2757025 0.24727958 -0.2206224 0.11242976
000170 9c 65 96 3e 47 91 c2 3c 42 1d 65 3e ff 90 c9 bd
       0.29374397 0.023750914 0.22374442 -0.09842109
000180 04 83 9d be 91 1f 2e be 1c 03 dd bd 42 30 51 be
       -0.3076402 -0.17004229 -0.10791609 -0.20428565
000190 3b 55 5b be 10 01 20 3e 67 5b a8 3e 40 79 65 3e
       -0.21419232 0.15625405 0.32882234 0.22409534
0001a0 fa 0e ef 3d da 46 90 be da d1 6d bd 79 20 06 3e
       0.116727784 -0.28179055 -0.05806146 0.13098325
0001b0 40 8e 9e 3e 62 6f 30 be 00 26 57 3e 40 e1 4e 3e
       0.30967903 -0.17229989 0.2101059 0.20203114
0001c0 7e 1e be bd 4f d9 a8 be e2 75 2b 3e 85 e0 3f 3e
       -0.0928316 -0.32978293 0.16744187 0.18737991
0001d0 6a 8f 94 be bd 61 8f 3e 9a 07 89 bc c9 f2 8b be
       -0.29015666 0.28004256 -0.016727258 -0.27333668
0001e0 7d 46 0b 3d f4 64 4c 3e b5 a0 40 3c 4d f0 8c be
       0.03400277 0.19960386 0.011757066 -0.27527085
0001f0 24 90 40 be c5 1a 54 3e 1c af 19 3e 6f 8b 69 3e
       -0.18804985 0.20713337 0.15008205 0.22807096
000200 dc 07 15 3e 65 28 70 3e 64 39 a8 bd 96 5b 21 3e
       0.1455378 0.2345291 -0.082140714 0.15757594
000210 4d ba dd 3d dc 0e 67 3d f1 01 9f 3e fd 53 05 be
       0.1082655 0.056410655 0.3105617 -0.1302032
000220 75 50 98 3e 9b f5 02 be 35 ab 8c 3e 5c 3d 91 bd
       0.29748884 -0.12789004 0.2747437 -0.070917815
000230 7a 38 91 3e 3d 03 00 be 25 b9 a8 3c 61 05 a6 3e
       0.283634 -0.12501235 0.020596096 0.3242598
000240 f3 19 a4 bc f7 1c ce bc 93 b8 1b be fc 84 7e 3e
       -0.020031905 -0.025160296 -0.15207128 0.24855417
000250 6a 52 45 3e 1b da a6 bd 3a 97 c7 bd 0d 66 a4 3e
       0.1926972 -0.08147069 -0.09745641 0.3210911
000260 e5 2e 57 3e f3 e4 91 3e 1f 6b 3d be 2c ad 06 be
       0.21013983 0.28494987 -0.18497895 -0.13151997
000270 7f 11 70 be f2 d5 84 be 7a 56 1a bd e0 b5 86 bc
       -0.23444174 -0.25944477 -0.037680127 -0.016444147
000280 13 da 36 be 06 f9 e1 bd 0f 5a f3 3c 0e b7 8d bd
       -0.17856626 -0.110338256 0.02970603 -0.069196805
000290 ad de 8b be c7 f5 94 3e 9f 63 f1 bd f0 a1 77 3d
       -0.27318326 0.29093763 -0.11786579 0.06045717
0002a0 c9 76 2c 3e 73 31 a6 be f8 ac 3a bd c7 f7 8a be
       0.16842188 -0.32459602 -0.045575112 -0.27142164
0002b0 c3 98 9d 3e e9 70 25 be 5d a3 77 3e 1f 9c b4 3c
       0.3078061 -0.16156353 0.24183412 0.0220471
0002c0 76 f2 1d be ee 44 10 3e c7 e7 8f be a6 03 02 be
       -0.15424523 0.14088795 -0.2810652 -0.12696704
0002d0 c0 70 3a bd b0 3c af 3e a2 51 9d be 9a 45 04 3e
       -0.045517683 0.34225988 -0.30726343 0.12917176
0002e0 22 9f a6 3e 3e 3a af bd e4 46 39 be 3d e7 62 be
       0.32543284 -0.08556031 -0.18093449 -0.22158523
0002f0 e1 20 b2 bd de c8 96 3e 52 b7 5e be 22 28 a6 3e
       -0.086976774 0.29450125 -0.21749619 0.32452494
000300 d1 ec 94 be cd eb 92 3e ba 38 ca 3c 04 44 c0 bd
       -0.29086927 0.28695527 0.024685252 -0.09387973
000310 61 46 97 be 54 32 2f be f9 14 60 be 5f 75 a2 be
       -0.29545882 -0.17109042 -0.21883 -0.31730172
000320 0c 75 eb bd eb b4 85 3e b2 2a a1 be 12 cf 8d 3e
       -0.11496934 0.26114592 -0.31477886 0.27697045
000330 52 7c c3 3d ee e7 48 3e 5b d2 28 bd 66 78 2a be
       0.095451966 0.19619724 -0.041216236 -0.16647491
000340 ef 3a 35 3e a4 97 87 3e 8e ee bf 3d 6e 7b 25 3e
       0.17698263 0.2648288 0.093716726 0.16160366
000350 57 b8 ba 3e 21 78 6c 3d d3 02 3b be 64 4d 4a 3e
       0.36468765 0.05773175 -0.18262796 0.19756085
000360 ad 98 3e be f9 2b 9a 3e 2a 0c 62 3d 4d e1 23 3e
       -0.18612929 0.30111673 0.05518738 0.16003914
000370 cc a2 6d 3d d9 ca 98 3e a4 f1 3f 3e c5 51 7b 3e
       0.058016583 0.2984226 0.18744522 0.24542911
000380 c9 62 32 be 4a 34 77 3d fc ae 7a 3e 91 83 80 3e
       -0.17420496 0.0603526 0.24480814 0.25100377
000390 ae 01 f3 bd 14 16 8a 3e ee bf a3 be f7 5b 89 3e
       -0.11865555 0.2696997 -0.31982368 0.26827976
0003a0 9b a4 08 be 17 9a 76 be ad 9c 96 3e 27 06 03 bc
       -0.13344042 -0.24082218 0.2941641 -0.007997072
0003b0 47 81 08 be ff 60 3c 3e 71 54 80 3e 0f 66 3d 3d
       -0.13330565 0.18396376 0.25064424 0.04623991
0003c0 cc e4 83 be ae a2 23 be 6f aa 45 be e0 4b 03 3e
       -0.25760496 -0.15980026 -0.19303297 0.12821913
0003d0 e0 51 ab be d2 ac 40 be 5d a3 ad be 4b 3c bf bb
       -0.33460903 -0.18815926 -0.339137 -0.005836045
0003e0 88 cc a5 3e 58 f9 ea 3d 8a ff 10 3d 0c ab 25 3e
       0.32382607 0.1147334 0.03539995 0.1617853
0003f0 c8 65 65 be ea fe a3 bd 09 d3 8c 3e af b6 96 be
       -0.22402108 -0.080076054 0.27504757 -0.29436252

model.0.bias f4 [64]
000000 1c 5d a9 3e 9d 4c 4c 3e 5e 7c 78 be 24 9e a5 3d
       0.3307885 0.199511 -0.24266192 0.080868036
000010 21 ac 98 3e 78 2b ef bd 90 88 f9 3d 80 09 21 3d
       0.29818824 -0.11678213 0.1218425 0.0393157
000020 11 48 0d 3e 90 13 3c bd 4c 8e 89 be aa e7 3b 3d
       0.13797022 -0.045917094 -0.26866376 0.04587523
000030 e3 72 3a 3e 3a ea e7 bd f9 39 fe 3d c7 8a e9 3b
       0.18207888 -0.11323972 0.12413401 0.0071271393
000040 eb 8a 3b be 6c 9c 69 be a8 cd 3a be 4c a7 6d 3e
       -0.18314712 -0.22813576 -0.18242514 0.2320835
000050 01 cc f1 3c 49 00 1b 3e f7 d6 9c 3d 0c 89 3b be
       0.029516222 0.15136828 0.07658189 -0.18313998
000060 c0 91 bb 3b 1d 7f 03 bc 94 7c eb 3d 12 c1 a4 be
       0.005724162 -0.008025912 0.11498371 -0.3217855
000070 63 9f 26 be be 77 63 3e d2 50 a0 be ed 87 81 3d
       -0.16271739 0.22213647 -0.3131166 0.06324754
000080 28 5d 48 3e 1c 26 17 3e 40 6b 12 3e 3b f3 f7 3d
       0.19566786 0.14760631 0.14298725 0.121069394
000090 e0 a2 2c be a5 10 51 3d 08 94 2f 3e 0c 89 80 be
       -0.16859007 0.051041264 0.17146313 -0.25104558
0000a0 39 4e 96 3e ac 5d 35 be f2 e5 7b 3a 12 b4 42 bd
       0.29356554 -0.17711514 0.00096091547 -0.04753501
0000b0 3b 33 e6 bb b1 b0 b4 3e 95 23 e1 3a b1 00 91 3e
       -0.00702515 0.35291055 0.0017176742 0.2832084
0000c0 be 9d 83 be d6 0e 63 bd 70 24 af be 5b a6 4b be
       -0.25706285 -0.05543407 -0.34207487 -0.19887678
0000d0 17 0b 90 3e 13 4c 4d be 7c 0d 55 3e 51 96 35 be
       0.2813346 -0.20048551 0.20805925 -0.17733122
0000e0 db 4b 95 3e 40 87 14 bd 84 b4 a7 bd ba 50 a8 3e
       0.29159436 -0.036261797 -0.081887275 0.3287409
0000f0 92 12 6c bd e0 9a 81 3e 06 c4 82 3d 02 0f 88 3e
       -0.057634898 0.25313473 0.06385045 0.2657395

model.2.weight f4 [16, 64]
000000 08 ee 96 bd 95 92 7b bc 68 84 71 bd d6 9a 86 bd
       -0.073696196 -0.015354772 -0.058964163 -0.06572501
000010 dc da f5 bd e6 0d 99 3a b0 78 dd 3d 86 5f d9 3c
       -0.12004635 0.0011677116 0.10814035 0.026534807
000020 77 d4 66 3d 2a 12 14 bc 33 ba 81 bb d4 2d ad 3d
       0.056354966 -0.009037534 -0.0039589643 0.08456007
000030 26 d3 03 be 6a f4 15 3c c2 53 06 be 74 b9 81 bd
       -0.12873515 0.009152511 -0.13117889 -0.063342005
000040 a1 ca c1 3d 64 bb b8 3d 8b c3 7a bd d4 54 8e 3d
       0.094624765 0.09020117 -0.06122164 0.069497734
000050 f2 4e 6f 3d f9 59 61 bd c4 d2 77 3d 13 a0 9b bd
       0.058424897 -0.055017445 0.060503736 -0.07598891
000060 1f 42 1f bd 29 f4 6d 3c 50 84 69 3c ce 6f 80 bd
       -0.038881417 0.014523544 0.014252737 -0.06271325
000070 07 57 c7 bd 0f f9 59 bd 0f 35 a6 bd 07 cf b1 bd
       -0.09733396 -0.053216036 -0.08115589 -0.086820655
000080 fb c9 f3 3c a0 bc 20 3b d3 9a c1 bd cf b4 2d bd
       0.029759398 0.0024526492 -0.094533585 -0.04240876
000090 74 55 c3 bd 3a 53 7b bd 16 03 af 3c 23 44 b5 bd
       -0.09537783 -0.061358668 0.021363776 -0.08850887
0000a0 65 84 c3 3d 9b e3 4f 3d bd c5 22 3d b0 73 bb 3c
       0.09546737 0.05075417 0.03973936 0.022882313
0000b0 f7 00 e5 bd a1 6a 0b 3c 30 0b bc bd 52 4e 59 bd
       -0.11181825 0.008509309 -0.09181821 -0.053053208
0000c0 bb 1a 80 3d 0e ad e1 bd 28 d4 cf 3d ac 26 1d 3d
       0.062550984 -0.11019336 0.101478875 0.03836696
0000d0 91 82 20 3b bb 79 8c 3c 3b bb a2 bc f1 71 8f 3c
       0.0024491886 0.01714789 -0.01986467 0.017510386
0000e0 bd 94 a9 3c d3 54 19 bd 5e ff 35 bd 06 0c 48 bd
       0.020700807 -0.03743441 -0.04443299 -0.04883959
0000f0 c8 27 6f bd e0 29 f3 bd 26 d7 d5 bd d0 b5 97 bd
       -0.058387548 -0.118732214 -0.10441427 -0.07407725
000100 70 4d ea 3d 63 be b5 3d b1 a2 34 bd 4a 51 e8 3d
       0.11440551 0.08874204 -0.044100467 0.1134363
000110 01 df 52 bd 4c 92 38 bc d4 71 06 3e d3 e1 9b 3c
       -0.051482204 -0.011265349 0.1312936 0.01902858
000120 e0 2a 94 bd 35 30 14 3c d9 7e ec bd f0 8b 36 3d
       -0.0723474 0.009044697 -0.11547632 0.04456705
000130 45 3d a1 bd 97 a1 a5 3d bc a6 ae bb 21 77 38 bc
       -0.07873014 0.080874614 -0.005329935 -0.011258871
000140 ae ae da bc 10 c9 0f be c4 b0 c5 3d b4 a6 59 3d
       -0.026694622 -0.14041543 0.09652856 0.053137496
000150 01 aa db 3d 0f 7a c3 3d da 40 ef 3d 63 31 b4 3d
       0.10725785 0.09544765 0.11682291 0.08798482
000160 c2 31 8c 3d bd f8 2f 3d e5 0f 0f be 81 56 30 3d
       0.06845428 0.042961825 -0.13970907 0.043051247
000170 d7 38 83 3c cb ef b8 3b bd dc ec 3c 61 c5 0b bd
       0.016018314 0.00564382 0.02891385 -0.034123782
000180 3a 7e fa 3d 14 58 b7 3c 7d a4 f9 bd 61 5b a2 3c
       0.12231107 0.022380866 -0.12189577 0.019818963
000190 9c e7 0c 3e 2c 9c 8c bd 51 e3 cb bc 34 df 75 3a
       0.13760227 -0.06865725 -0.024888666 0.0009379268
0001a0 a9 ca b9 bd e4 88 ed 3c c6 8c 97 bd e3 08 a7 bc
       -0.090718575 0.028995939 -0.07399897 -0.02038998
0001b0 9f e2 4c bc c1 3f 7d 3d 5b 67 05 be cb 16 4b 3c
       -0.012505203 0.06182838 -0.13027708 0.012395571
0001c0 d4 d3 8c 3d f3 be 8b 3d ee 83 5b bd 01 92 23 3d
       0.068763405 0.0682353 -0.053592615 0.039934162
0001d0 0d 6b 47 3d b3 be bf 3d ab 2a c3 3c a4 d5 30 3c
       0.048686076 0.09362545 0.023824057 0.010793123
0001e0 d6 2f 39 bd 19 80 20 3d 8f 5e 2c 3b 06 b3 f9 3d
       -0.045211636 0.039184663 0.0026301479 0.12192349
0001f0 ee d7 f3 3d 26 e5 cf 3d 70 29 d4 3c 6e e9 38 bd
       0.1190642 0.101511285 0.025898665 -0.04514449
000200 cf 6e dd 3d 52 fa cf bd 33 f1 5d bc 4a 1f 53 bd
       0.10812151 -0.10155167 -0.013546276 -0.05154351
000210 93 19 9c 3d a5 97 de 3d e0 73 b5 bd d6 0f 38 3d
       0.076220654 0.10868768 -0.08859992 0.044936977
000220 1e ff d0 3d 4c 7d a3 bd 4d 1b 60 bd 7e 23 d5 bd
       0.1020491 -0.07982883 -0.054713536 -0.1040716
000230 65 b3 45 bd e0 78 56 bd 3f 12 9d 3d 13 58 81 3c
       -0.048266787 -0.05236137 0.07669496 0.015789067
000240 16 e2 6c bd a9 65 ac bd 8d 1e da 3c 42 e7 e4 3c
       -0.0578328 -0.08417828 0.026625896 0.027942304
000250 88 51 94 bd 0f 67 16 3d 57 0f ae bd 1a 85 e6 bd
       -0.07242113 0.036719378 -0.084990196 -0.11255856
000260 17 df a3 bd 9f 03 ed bd 35 05 b1 3d bb 06 f0 3d
       -0.080015354 -0.11572956 0.08643571 0.11720034
000270 05 c1 cd 3d 11 87 94 bd 6c ca cb bb f4 47 91 bd
       0.10046581 -0.072523244 -0.006219199 -0.07093802
000280 30 da 3e bd 9e d1 c3 3c 78 44 da 3d 6e dc 3a 3d
       -0.0465948 0.023903664 0.10657591 0.045620374
000290 43 57 f6 3b 5c f2 e4 bc 62 3a 64 3d 67 6a ab bc
       0.0075177266 -0.027947597 0.05571974 -0.02092476
0002a0 73 20 e5 bd f8 46 62 3c e3 81 d3 3d 57 16 ab 3d
       -0.1118783 0.013810866 0.10327508 0.0835387
0002b0 0e bd a1 bc fa 2a 9d bd 45 cd 34 bd e1 cd 67 b9
       -0.019743469 -0.07674213 -0.044141073 -0.00022106573
0002c0 54 dc 44 bd 6e d7 77 bd 6c ea 8c 3d 2e 83 f2 bd
       -0.048061684 -0.060508184 0.0688065 -0.11841427
0002d0 df 94 81 bc 70 64 d0 3d f9 ae 4e 3d 8b e0 60 bc
       -0.015818058 0.10175407 0.050459836 -0.01372541
0002e0 ca fe aa 3d 98 df 8c bd 10 21 90 3c 8a 70 f0 3d
       0.083493784 -0.068785846 0.01759389 0.11740215
0002f0 fd ba 71 3a 53 b5 fb bd fd 57 c6 bd d7 57 f5 bd
       0.0009221284 -0.12290444 -0.09684751 -0.11979645
000300 b3 ab b7 bd 56 89 0e 3d 5b fc 86 bd 29 ab 02 3c
       -0.08968296 0.034798943 -0.06591102 0.007975378
000310 5f 96 07 be b4 71 58 bc ce cc 17 3d 3a a2 68 3d
       -0.13240956 -0.013210703 0.03706055 0.056795336
000320 0f f0 e3 3d e0 24 8f 3d 2a 56 b2 bd fa 7f 92 3d
       0.11129772 0.06989455 -0.08707841 0.07153316
000330 98 f2 d3 bd 5d bb 4f bc 67 5f 20 3d 09 d5 d5 3d
       -0.103490055 -0.012678948 0.039153483 0.10441024
000340 c4 d4 99 3c ab 0a 8b 3d d8 e0 9c 3d a4 42 0a 3e
       0.018778212 0.06789144 0.07660073 0.13501984
000350 43 94 a2 3d f7 fa 0d bd 27 11 26 3d 36 b5 c2 bd
       0.07938435 -0.034663167 0.0405437 -0.095072195
000360 87 18 39 bd 44 76 0f 3d 91 d3 b3 3d 59 c0 92 3d
       -0.045189407 0.035024896 0.087805875 0.07165594
000370 26 e8 9f 3b c5 01 15 bd ff 20 a4 3d d9 09 bb 3d
       0.004879969 -0.03637864 0.08014106 0.09132738
000380 91 60 54 bd cd 9e 1d bc 5d d7 9d bc 34 3e 85 3d
       -0.051849905 -0.009620381 -0.019267732 0.06506005
000390 03 c1 cc bd d9 ef aa bd d7 ce 96 bc 1e 38 bd 3d
       -0.099977516 -0.083465286 -0.018409176 0.09239219
0003a0 67 7d b4 3b f7 7c 4a 3d d8 28 23 3d 2c d8 de 3d
       0.005508113 0.049435582 0.039833874 0.10881075
0003b0 f1 10 a9 bd 63 ed 62 ba 5b b3 79 3d f0 58 a4 3c
       -0.082551844 -0.0008656589 0.060962062 0.02006194
0003c0 90 bc dc 3d 99 ba f8 bd 2e de 02 bd 42 2f bd bd
       0.10778153 -0.12144966 -0.03195017 -0.09237529
0003d0 6a de c1 3c 38 b9 7d 3d 01 ed 68 bd 80 f8 d6 3d
       0.023665626 0.061944216 -0.05686665 0.10496616
0003e0 32 e3 27 bc 4b a0 d9 bd 27 d3 e0 bd 7b ec d5 3c
       -0.010247039 -0.106262766 -0.10977774 0.02611374
0003f0 d0 91 d7 3c 39 a5 c5 bd 6c 34 16 3d 74 cd 68 3d
       0.026314646 -0.09650654 0.036671087 0.05683656

model.2.bias f4 [16]
000000 a1 ad 89 bc d3 fa 57 3d 3a ac fb bc db c5 f3 3d
       -0.016806426 0.05272944 -0.030721772 0.11902972
000010 a2 8a ba 3d ac ca ad bd 12 79 a9 3d 70 81 b0 bd
       0.09108473 -0.08485922 0.082750455 -0.08618438
000020 d8 e8 e5 3c b8 c5 ef bd ae 86 b3 3c 61 86 42 3d
       0.02806513 -0.11707634 0.021914806 0.047491435
000030 b5 49 a4 3d 6b 39 04 bd 9a f2 a7 bd 69 67 4e bd
       0.08021871 -0.03228132 -0.082005695 -0.05039159

model.4.weight f4 [8, 16]
000000 01 5e 42 3e bb 55 06 bd 2e 18 4d 3e ee f2 4a 3d
       0.18981172 -0.032796603 0.20028755 0.049548082
000010 75 62 81 be 82 44 46 3e 7c ba 09 be cd 7e 2e 3e
       -0.2527043 0.19362071 -0.13450044 0.17040558
000020 37 4d 53 bd 0d a0 b0 bd 1b 00 29 3e 0a 01 8e bc
       -0.05158731 -0.08624277 0.16503946 -0.01733448
000030 bd 61 58 be ae db 6b 3e 6e 55 7d 3e e5 cc 6c be
       -0.21131034 0.2303302 0.2473962 -0.23125036
000040 d6 b5 86 3d 5c 22 2d bd 22 7e 06 be 2e 12 20 be
       0.06577651 -0.042269096 -0.13134053 -0.15631935
000050 81 d5 75 be d5 30 51 be 0d ac 2c 3e 95 d9 d9 bd
       -0.24007227 -0.20428784 0.16862507 -0.106372036
000060 c1 45 64 bc e7 d2 e3 3b 52 96 16 3e f8 b1 ce bd
       -0.013932646 0.0069526318 0.1470578 -0.100925386
000070 f8 c6 86 bd 11 d7 b9 bd 6d 3f 4a 3d 14 3d 0d bc
       -0.06580919 -0.09074224 0.049376894 -0.008620519
000080 b8 58 82 3e 70 61 72 bc 20 60 3f be 11 31 0a 3e
       0.25458312 -0.014793739 -0.18689013 0.1349528
000090 84 32 07 3e 73 ff a0 3c 73 0e 13 bb a8 e1 2c 3e
       0.13202864 0.019653058 -0.0022439032 0.16882956
0000a0 41 c1 bd 3b 59 68 91 3c 69 09 10 3e f7 d1 f0 3d
       0.00579086 0.017749952 0.1406609 0.117587976
0000b0 e4 7f 75 3c e1 7b 17 3e ff 16 72 3c f6 50 cc bd
       0.014984105 0.1479335 0.0147759905 -0.099763796
0000c0 55 b3 2f 3e 12 06 23 3e 21 be e6 3d 16 0f d9 bc
       0.17158253 0.15920284 0.11266733 -0.026496451
0000d0 8f 39 47 3d 99 89 4b be dd 2b 78 3d 70 fe 43 3d
       0.048638877 -0.19876708 0.060588706 0.047850072
0000e0 23 cf d9 bd 94 ff 4f be 9e ad de bb cc 1e 1b 3e
       -0.10635211 -0.20312339 -0.006795599 0.15148467
0000f0 7a 29 22 be 48 d4 0d 3e 32 71 b8 bd 02 c2 c2 bd
       -0.15836135 0.1385051 -0.09005965 -0.0950966
000100 3d cd 7a 3e fe 71 23 be c9 43 58 3e 8b bb 35 3e
       0.24492355 -0.15961453 0.21119608 0.17747323
000110 f6 85 9e 3c 32 db af bd 79 78 08 bd ec f3 56 3e
       0.019350987 -0.0858673 -0.033318017 0.20991486
000120 bd e6 41 be 96 40 92 3e e9 ce b5 3d 0f 6a 70 be
       -0.18935676 0.285649 0.088773556 -0.23477958
000130 1e 64 36 3e 1f 31 91 3d 95 37 ae bc b2 6c 27 be
       0.17811629 0.07089447 -0.021266738 -0.16350058
000140 f3 38 8a 3e 29 49 3b be 9c 9c 14 be 59 ff 85 3c
       0.26996574 -0.18289627 -0.14512867 0.01635711
000150 c4 b2 05 bd 08 b3 07 be 29 1b 2d 3e c2 01 06 bd
       -0.032641187 -0.13251889 0.16904892 -0.03271652
000160 d5 10 2a 3d b4 d6 e0 ba 5e ee 86 bd f4 5e 83 be
       0.04151996 -0.001715383 -0.06588434 -0.2565838
000170 3e 00 7d 3e 47 ec b1 3d 42 c0 7e 3e 07 04 27 be
       0.24707124 0.086876445 0.24878028 -0.1631013
000180 80 8d 49 3d d6 03 09 be 0c 30 3c be 5f 65 85 bc
       0.04920721 -0.1338037 -0.18377703 -0.016283689
000190 86 e6 dd 3d f4 00 c3 3d 6e 6c 33 be 8a 6e 33 be
       0.108349845 0.09521666 -0.17521831 -0.17522636
0001a0 c6 23 6d 3e 56 02 f6 3d 17 95 73 bd 16 e4 63 3e
       0.23158178 0.12012164 -0.059468355 0.22254977
0001b0 90 77 08 be 11 ed 75 bc d3 09 d3 3d d7 db 62 be
       -0.1332686 -0.015010134 0.10304608 -0.22154175
0001c0 4e 7e 31 3e cd 43 4c 3e 0d ba df bd 0a 6a 35 bc
       0.17333338 0.19947739 -0.10924158 -0.011072645
0001d0 bf 8d 55 bc c2 7d 5c 3d de 28 c3 bd ee ca 6a be
       -0.013034283 0.05383087 -0.09529279 -0.22928974
0001e0 57 26 92 3c ab 9f c5 3c d6 25 14 be 78 1a 4d 3e
       0.017840547 0.024123987 -0.14467558 0.20029628
0001f0 0a 61 81 bd 16 bc 49 3e 42 ae 37 bd d8 5a f6 bd
       -0.06317337 0.19700655 -0.04484392 -0.12029046

model.4.bias f4 [8]
000000 c4 e4 83 bc bd 3e 2f 3e eb a2 49 3d 66 ee 4e 3e
       -0.016100295 0.17113777 0.049227636 0.2020813
000010 58 b0 23 3e c8 38 4f be 43 07 1c 3e 98 e4 00 be
       0.15985239 -0.20236504 0.15237145 -0.12587202

model.6.weight f4 [1, 8]
000000 45 c9 1e 3e 09 4e 54 be 85 b4 46 3e 30 1d 9a bd
       0.15506466 -0.20732893 0.194048 -0.07525098
000010 a9 77 ea 3e 35 52 d6 3e b5 08 4c 3d 2d 71 8b be
       0.45794418 0.41859594 0.04981299 -0.27234784
