HW2/model45epoch_model2.pth (torch, 9487 bytes, 7 tensors)

model.0.weight f4 [64, 8]
000000 60 18 89 bd e4 ca 5e 3d a2 f1 47 3e 0b b9 fe bd
       -0.06694102 0.05439271 0.1952577 -0.12437638
000010 29 1f c5 bd f4 9e 62 3c d0 b5 5a be ca 3d ad 3d
       -0.09625084 0.013831843 -0.21358418 0.08459051
000020 64 2a 93 bd 67 53 17 be 3f 25 1d 3e 36 2d bf 3d
       -0.0718582 -0.14777909 0.1534624 0.09334795
000030 a4 da e3 bd 63 fa 77 be 1a 41 a2 be f5 e8 2b be
       -0.11125687 -0.24216609 -0.31690294 -0.16788085
000040 87 a6 ae be 09 c6 55 3d 42 60 87 be 3c 26 bf bd
       -0.34111425 0.052190814 -0.26440626 -0.093334645
000050 12 bf 44 be 43 71 71 3e 94 8d d5 3d a5 90 e2 3d
       -0.19213513 0.23578362 0.104273945 0.11062745
000060 92 29 ab 3e d8 e8 89 3e c4 75 ad 3d f7 eb 0e be
       0.33430153 0.26935458 0.08469728 -0.13957201
000070 90 cb ac 3e 9f 4d e5 3d e2 17 18 3e 37 60 16 be
       0.33749056 0.11196446 0.1485286 -0.1468514
000080 3b 7e 7a be ec 99 a1 3d b3 4c 1c 3e fb 67 08 bc
       -0.24462216 0.078906864 0.15263633 -0.008325572
000090 29 ff 2c bd db 76 a9 3e 5b ff 9b 3e d4 9a d8 ba
       -0.042235527 0.33098492 0.30468258 -0.0016525635
0000a0 ad ff a7 bd 38 8a 38 3d fd 2f d0 3d 65 bd 34 3e
       -0.08203063 0.04505369 0.10165403 0.17650373
0000b0 40 d1 a9 be 5b 95 ac 3e aa e2 d7 3d a1 ec 58 be
       -0.33167458 0.337077 0.105412796 -0.21184017
0000c0 20 70 76 3e 8d e1 8a 3e f5 10 8d 3e 9a 8b 1f 3e
       0.2406621 0.27125207 0.27552 0.15580598
0000d0 1f e0 17 be fc dd fb bd 7e 21 89 3e 6c 1f cc bd
       -0.14831589 -0.122981995 0.26783365 -0.09966931
0000e0 27 fa b8 3b c3 0e 2d be 4b 46 18 be 65 5a 27 3e
       0.005645055 -0.16900162 -0.14870565 0.16343077
0000f0 79 39 34 3e de 7a c5 bc 88 59 29 3e 2d a2 97 be
       0.17600049 -0.02410644 0.1653806 -0.29615918
000100 e3 a8 b2 be c3 c6 8b be a6 47 09 3e e1 ab 8a be
       -0.34894475 -0.2730008 0.13406238 -0.27084258
000110 10 38 78 3d 5c b8 b5 bb 70 2f 20 bd 5c 4a a6 3e
       0.06060034 -0.005545659 -0.03910774 0.32478607
000120 79 23 62 3e a0 4e 8e be ea 78 aa be c5 2f 3b 3e
       0.22083844 -0.2779436 -0.33295375 0.18279941
000130 5c 47 51 3e ee 90 89 be 22 1b b0 3d eb 99 71 3d
       0.20437378 -0.26868385 0.08598925 0.05898468
000140 b6 d0 05 3e 3f ab 5e 3d 39 7a 83 3e f6 29 93 3e
       0.13067898 0.05436253 0.25679186 0.2874295
000150 1c 1f 0a 3e 50 7d 9a 3e 37 31 ca 3d 62 4a f1 bd
       0.1348843 0.3017373 0.09872668 -0.117817655
000160 7b 68 4d bd 1e 19 2e 3e 54 19 7b be ee cc 26 be
       -0.05014847 0.17001769 -0.2452138 -0.16289112
000170 c4 7a fa bd de cf 4b bc 03 21 72 bc 92 8b 9d be
       -0.12230447 -0.012439696 -0.014778378 -0.30770546
000180 46 08 07 3e 52 71 e4 3d f4 95 6a 3e 30 59 ce 3c
       0.1318675 0.11154427 0.22908765 0.025189012
000190 10 11 79 3d 89 f4 b1 3e 7e 09 b5 3e 6e 23 8d be
       0.060807288 0.34756878 0.35358804 -0.27566093
0001a0 27 1f a0 3d b1 a5 9d be a6 97 97 be 00 36 4b 3e
       0.07818442 -0.30790475 -0.29607886 0.19844818
0001b0 8a 1c 52 be 7d 46 30 3c 61 df 2c bd 76 c3 21 3e
       -0.205187 0.010758993 -0.04220522 0.15797219
0001c0 b5 a0 07 be b0 15 03 be 9d c7 ab 3e 32 03 63 be
       -0.13244899 -0.12801242 0.3355073 -0.22169188
0001d0 a1 69 9a be 09 40 f2 3d 0d cf 33 3d b1 15 a6 be
       -0.30158713 0.1182862 0.04389863 -0.32438424
0001e0 d3 39 89 3e fc 58 a8 be b6 c6 0a 3e b8 41 0d 3e
       0.2680193 -0.3288039 0.13552365 0.13794601
0001f0 b7 27 48 be ac c1 bc 3d 8c cd 97 3d 15 3a af be
       -0.195464 0.092166275 0.07412252 -0.34224
000200 16 a3 05 3d 73 1c 29 3e f4 65 15 3d 64 db b5 3d
       0.032626234 0.16514759 0.036474183 0.08879736
000210 40 2c ec 3d 1d 04 b4 3e 42 a9 20 3e ea f6 ce 3c
       0.115318775 0.35159388 0.15689567 0.025264222
000220 01 f9 21 be 89 f6 46 3d 44 4b 89 3e fe 89 76 be
       -0.15817644 0.048574958 0.26815236 -0.24076077
000230 f4 ae 74 3e 86 79 1a 3e b6 eb 8e be 3d 90 66 bd
       0.23894864 0.1508542 -0.27914208 -0.0562899
000240 f0 2b 78 be fd 10 8f be f8 51 6a 3e 7c f5 2f be
       -0.24235511 -0.2794265 0.22882831 -0.17183489
000250 a1 52 0f 3e 4c 81 95 3e 8c e0 82 be 1b 21 81 3d
       0.13996364 0.29200208 -0.2556194 0.063051425
000260 e4 50 ac be 6e 38 11 be 32 f7 6d 3e 3d 32 7e be
       -0.33655465 -0.14181682 0.23238829 -0.24823852
000270 0e cd a0 3d 17 8c a6 3e 63 5e 7f 3e df aa 48 be
       0.07851611 0.32528755 0.2493835 -0.19596432
000280 c9 d1 97 be 9b 42 b5 bd c9 c2 f8 3d 8a 1e 1a 3e
       -0.2965224 -0.088505946 0.12146527 0.15050712
000290 93 4b b3 bd f9 85 82 3e e6 ec 27 3e b8 aa 53 3e
       -0.08754649 0.25492838 0.16398963 0.20670593
0002a0 5e 7e 16 3d 6e e2 ac 3e 2a dc 91 be 8b 6d 83 3d
       0.036741607 0.33766502 -0.28488284 0.06417378
0002b0 55 64 86 3e 73 11 9c be 56 f4 86 3d 84 d1 51 be
       0.26248422 -0.30482063 0.06589572 -0.2049008
0002c0 30 7f 67 3d 1f d9 4a 3c 2d 88 a2 be b6 aa 2e be
       0.05651778 0.012380867 -0.3174452 -0.17057309
0002d0 6d 89 ee bd 6c 12 76 bd 63 ba 94 be 7c 2b a9 bd
       -0.11647306 -0.060076162 -0.29048452 -0.08260247
0002e0 9c 40 0c be e8 41 af be 69 4d 63 be 5b 58 77 be
       -0.13696522 -0.3422997 -0.22197498 -0.24154799
0002f0 0e 63 9b 3e 93 bc 68 3d 93 47 6e be 5b 43 b3 3e
       0.3034901 0.056820463 -0.23269491 0.35012326
000300 b1 fd cb bd b2 42 0a be df b7 84 3e 64 c1 af bc
       -0.09960497 -0.13502005 0.25921533 -0.02145452
000310 0b 33 1a 3e 98 94 0d bd 23 6e 97 bc 49 b7 8e 3e
       0.15058534 -0.03456554 -0.018485134 0.2787421
000320 f6 ca e2 bd 21 4f 7f 3e bd ee 9a 3e b8 f3 93 be
       -0.11073868 0.24932529 0.30260268 -0.2889688
000330 a4 33 c5 bc e6 be 99 be 87 ec 06 3e 1a ef 8a be
       -0.024072476 -0.30028456 0.13176166 -0.27135545
000340 6b c2 bc bc da 07 8f be b9 35 66 3e 7f 9d 2a 3e
       -0.023041924 -0.27935678 0.22481431 0.16661642
000350 96 42 07 3e 5d 29 d3 3d 25 3d 70 bc df 04 99 be
       0.13208994 0.10310624 -0.0146630155 -0.2988653
000360 f0 ac 8b be ad f6 84 be d4 fa 4c 3e 3e 43 65 be
       -0.27280378 -0.2596945 0.20017558 -0.22388932
000370 2b 7d 54 be 92 5c 2c 3e 49 a2 92 be b0 82 87 3e
       -0.20750873 0.16832188 -0.2863944 0.26466894
000380 4d 1d 8f be 75 f8 65 be 63 be 4c bd ca 11 46 bd
       -0.27952042 -0.2245806 -0.049986254 -0.04835681
000390 7d 81 93 3e 57 17 a5 bc 57 e4 ea 3d 8f 33 08 3e
       0.2880973 -0.02015273 0.114693336 0.13300918
0003a0 ef 07 82 be d8 5d 13 3e 40 a4 8e be 67 99 81 be
       -0.25396678 0.14391267 -0.27859688 -0.2531235
0003b0 b9 84 2c 3d 1e 63 bf 3c d9 70 8a 3b d7 b9 89 3e
       0.04211876 0.023362692 0.0042248783 0.26899597
0003c0 c9 32 bc 3c 4c cf 01 be 0b e1 a7 3e a9 c1 91 be
       0.022973435 -0.12676734 0.32788882 -0.28468063
0003d0 1c 47 af 3c 24 b3 b3 3e f9 77 b0 3d 4f 1e 75 3d
       0.021396212 0.3509761 0.08616633 0.059843358
0003e0 01 55 92 be 2b 1a 4a 3e be 5f 06 be b8 b0 2b be
       -0.28580478 0.19736545 -0.1312246 -0.16766632
0003f0 b8 a5 65 3e c8 17 96 3e 9b cb 9e 3e 14 2b a7 3d
       0.22426498 0.2931502 0.31014714 0.081625134

model.0.bias f4 [64]
000000 08 a3 73 3d a2 78 24 3d 10 93 c9 bd f8 08 9a 3d
       0.05948165 0.040154107 -0.09842503 0.07521242
000010 4a e8 5b bb 3e 8e 9b 3e d2 97 92 bd 25 10 83 b8
       -0.0033555203 0.3038196 -0.07157864 -6.249574e-05
000020 e5 a8 84 3e ea 08 8b be d2 21 05 3e fb 08 8e be
       0.25910106 -0.27155238 0.13001183 -0.27741227
000030 67 59 68 be 08 e8 3e be 55 d6 84 3e 01 68 9a bc
       -0.22690354 -0.186432 0.25944772 -0.018848421
000040 7d 52 a3 3e 44 61 5e 3e 97 89 b6 bd e2 a1 34 3d
       0.3189887 0.21716791 -0.08912962 0.044099696
000050 78 b4 71 bd 9b 50 8b be 66 ba 97 3e 86 fb ab be
       -0.05901 -0.27209935 0.29634398 -0.33590335
000060 d2 6a ad be e5 61 00 3e f5 04 14 3e 9e 1b 10 be
       -0.3387056 0.12537344 0.14455016 -0.14073035
000070 fe d8 3f 3e bc 89 4c 3e 43 7b bb 3d 68 1b 9c 3e
       0.1873512 0.19974416 0.0915437 0.3048966
000080 d1 72 bb bd 4a 09 5a bd 0e c7 3e be ca f4 d0 bc
       -0.09152759 -0.053231515 -0.18630621 -0.02550735
000090 45 23 07 be 86 7c ae bd e2 b3 3b be 28 1b 39 be
       -0.13197048 -0.08519845 -0.18330339 -0.18076766
0000a0 ae f1 f0 bc 53 6c e5 3b 30 42 a7 be dd 2f 3b 3e
       -0.029412117 0.0070014386 -0.32667685 0.18279977
0000b0 77 ac d7 bd 9f ea b1 be 05 5a 53 be 43 36 70 3e
       -0.10530942 -0.34749314 -0.20639808 0.23458199
0000c0 17 2f 92 be a9 1b 88 be b6 5c 38 be 72 42 53 be
       -0.28551552 -0.26583603 -0.18004116 -0.20630816
0000d0 3f 7f b0 be 6a ad c8 bd e9 97 b7 bc 52 97 9d 3e
       -0.3447208 -0.09798701 -0.022411304 0.3077951
0000e0 ba 92 ef 3d 8f 03 3e be af 58 eb bd ad 15 88 be
       0.11697908 -0.18556045 -0.114915244 -0.26579037
0000f0 7e 2d 23 3e 78 56 c3 3d 46 12 67 3e 30 eb 8f 3d
       0.15935323 0.09537977 0.22565565 0.0702728

model.2.weight f4 [16, 64]
000000 fa 9d 8b 3d 4c e4 e5 3d eb 43 16 b9 94 8d e4 3c
       0.06817241 0.11225185 -0.00014330416 0.027899541
000010 25 aa e7 3c 4e 00 43 bd 1e 8a b8 3d b3 12 a5 bd
       0.028279373 -0.047607712 0.09010719 -0.08060207
000020 ab 20 3e ba aa 1f 9b bc e5 49 80 3d 1b 2e fd bd
       -0.0007252793 -0.018935997 0.06264094 -0.123623095
000030 f5 f2 45 bd d5 0a ee 3d 3b 27 b2 bc d9 20 c1 3d
       -0.048327405 0.1162316 -0.021747222 0.09430093
000040 31 5b 08 bd 5d 58 a4 bd fc 13 7a bd c1 7b 52 3c
       -0.033290092 -0.080246665 -0.061054215 0.012846888
000050 c9 0a 1e bd 3a 1c 65 3d 9f 09 2c bd 7c 58 17 bd
       -0.038584504 0.055935122 -0.042001363 -0.03694962
000060 68 58 8f bd b2 d2 c6 bd 49 a0 9b 3d 87 65 38 3d
       -0.06999284 -0.09708156 0.07598931 0.0450187
000070 ed 4f 40 bd 2f e6 ab 3d 6d 5d 5c bc e1 48 64 bd
       -0.046951223 0.083935134 -0.013450009 -0.055733565
000080 32 13 f1 3d 9d 2b c8 bd d9 83 f7 3d da 65 02 3b
       0.11771239 -0.097739436 0.12085695 0.0019897134
000090 63 ba 92 3d 29 5d 0e 3d b1 ee 85 3d eb 63 9c bd
       0.07164457 0.034756813 0.065396674 -0.07636245
0000a0 ac ed fc 3d 17 4d 54 3c 8d 43 1a bd f6 55 f7 bd
       0.1235002 0.012957833 -0.037662078 -0.120769426
0000b0 59 a6 91 bd e4 55 ee 3c 47 0d 49 3d c4 c5 17 3d
       -0.071118064 0.02909369 0.049084928 0.03705384
0000c0 1d 24 0f 3d bb 85 77 3d 41 94 e4 3b 0d af 08 3d
       0.03494655 0.06043027 0.006975681 0.033370066
0000d0 a4 38 f3 3d 6c cb 6a 3c ad 8b 10 bd 38 ec ab 3d
       0.11876038 0.014330726 -0.035289455 0.083946645
0000e0 53 7a 0e bd 6d a3 f6 3c 2a 0d 66 bd 3d e5 4d 3d
       -0.034784626 0.030107224 -0.056164898 0.050267447
0000f0 ea 6c 34 bd d4 d7 fe 3d 30 72 d9 3a 08 7b 7f bd
       -0.04404918 0.1244351 0.0016589817 -0.06237319
000100 fd 0d 67 bd 15 37 f8 3d 99 5c eb bb 7f 4e 41 3d
       -0.056409825 0.12119881 -0.0071826694 0.047194
000110 40 51 38 bd f4 cb 74 3c 4e 81 f4 3d 07 55 a3 3c
       -0.04499936 0.014941204 0.119387254 0.019938005
000120 5c 20 e5 3d ab ea 92 3c 3d a4 40 3d 7b 2a f4 3d
       0.11187813 0.017934164 0.04703163 0.11922165
000130 13 56 e7 3d f4 91 e1 3c 07 ff 5b 3d a0 41 0f 3d
       0.11295714 0.027535416 0.05371001 0.034974694
000140 ee d5 8a 3d c8 9a 9f 3d 50 6d cf 3d e0 d0 3d bc
       0.06779085 0.07793194 0.101282716 -0.011585444
000150 f9 77 0b bd 39 31 ef bd 17 a9 ca bd 98 4a b6 3c
       -0.03404996 -0.1167931 -0.098955326 0.022252366
000160 d7 66 b3 3d 87 5a a7 3c 0f 03 e7 3d 64 78 be 3c
       0.087598495 0.020428909 0.1127988 0.023250766
000170 83 48 6b 3d e8 bc 3e bc 21 45 ec 3d be 7d 24 3c
       0.0574422 -0.011641718 0.11536623 0.010039745
000180 f5 e3 dc bc c8 84 94 bd 8f 60 a5 3d bd f6 e7 3d
       -0.026964167 -0.072518885 0.08075058 0.113263585
000190 f6 df e7 bd 77 9a dd bd 4b 94 e6 3d fe 5f fd bd
       -0.11322014 -0.108204775 0.112587534 -0.12371825
0001a0 54 1c 70 3c 9b e1 7f 3b c2 15 90 3d e0 6c 44 bd
       0.014655191 0.0039044383 0.070354 -0.047955394
0001b0 f4 85 57 3d 74 3b fd 3d c6 6e b3 3c df 7d 15 3c
       0.052617982 0.123648554 0.021903407 0.009124248
0001c0 69 d1 e4 bd a8 46 9b 3c e2 ba 09 3d e2 26 32 3d
       -0.11172754 0.01895459 0.03362549 0.043494113
0001d0 a8 71 62 3d 05 cf 6e bd 33 44 9c bd 94 7d 83 bc
       0.055284172 -0.058302898 -0.076301955 -0.016051091
0001e0 3d 9a d8 bc 30 6a 86 bd dc 54 d1 bd b3 9d b6 bd
       -0.026440734 -0.065632224 -0.10221264 -0.089167975
0001f0 cc 51 63 bc b9 d3 94 39 c2 f6 50 3d 1a 5d cb 3d
       -0.013874482 0.00028386505 0.051016577 0.09929867
000200 0b bb 04 ba b0 54 d6 3c a7 d8 e0 bd 37 93 ad bd
       -0.0005063272 0.026163429 -0.10978823 -0.08475345
000210 56 d5 d2 3d e4 70 a2 3c 6d e7 1d 3d 37 95 df 3c
       0.10294597 0.019829221 0.038550783 0.02729283
000220 53 4a 8c bd 81 f3 c6 bc 32 c4 e0 3d 16 57 51 bd
       -0.06850114 -0.024286034 0.10974921 -0.051108442
000230 d8 e4 83 3d 2d cb 3b bd 81 fe 7a bd 06 43 1a bd
       0.06440133 -0.04584806 -0.06127787 -0.037661575
000240 33 27 9e bd 57 fd 07 bd cf ee 39 bd aa 51 79 bd
       -0.077223204 -0.033200588 -0.04539376 -0.060868897
000250 ea 89 c9 bd bd 22 18 bd f3 fb 6f bd 18 8a 3e bd
       -0.09840758 -0.037142504 -0.058589887 -0.046518415
000260 05 72 9f bd fd ce b5 bc b3 af 2d bd af c3 07 bd
       -0.077854194 -0.022193426 -0.042403888 -0.033145603
000270 e7 01 e9 bb 6c b0 c5 bd 02 7a 75 3d 8a 5a 65 bc
       -0.0071108225 -0.096527904 0.05993081 -0.013998637
000280 9b df 7b bd 3c 78 53 3d a7 d7 d7 3d 08 15 9c 3c
       -0.061492544 0.051628336 0.10539179 0.019052997
000290 30 ef aa 3b 99 d1 0e bd 05 af e4 3c 47 11 89 3d
       0.0052165017 -0.034867857 0.027915487 0.066927485
0002a0 ae 79 7b 3d 26 ae 8e bb 2d 95 a6 bd 45 22 ea bd
       0.06139534 -0.004354256 -0.08133922 -0.11432318
0002b0 ae 78 85 3d ff 89 91 3d 08 0c fd 3d 76 82 57 3d
       0.065171584 0.07106399 0.123558104 0.05261465
0002c0 68 63 e0 bd 08 e2 14 bc 51 26 f5 3d e9 60 ad 3b
       -0.1095646 -0.009087093 0.11970199 0.0052910936
0002d0 98 26 c3 3d ae 9a f1 bd 6f ea 58 bd 48 f2 87 3d
       0.095288455 -0.11797081 -0.05295795 0.06638008
0002e0 39 3d 91 bd 6c c3 1b 3d 39 ac fd bd 0c 86 9e 3d
       -0.070917554 0.038028166 -0.123863645 0.07740411
0002f0 ca 3d 39 3c 47 6c 12 3d 31 50 88 3d 30 51 58 ba
       0.011306236 0.035747793 0.0665592 -0.0008251844
000300 16 c0 ec bd bb 1a ea 3d eb 95 98 3d cf f5 0f bd
       -0.11560075 0.1143088 0.074504696 -0.03514653
000310 87 c2 60 bc 6d c3 9b 3c 6d f7 79 bd f1 84 62 bc
       -0.013718254 0.019014085 -0.06102698 -0.013825641
000320 de 91 f3 bd a6 d6 e5 bc 74 33 a5 bc d8 40 3d 3b
       -0.11893056 -0.028056454 -0.020166136 0.0028877761
000330 c5 a3 78 3d 37 71 9f 3d 9b ec a7 3d 63 b7 f7 bd
       0.060703058 0.07785266 0.08199426 -0.12095525
000340 0b bd 9e 3d 9c b4 ce 3d 0b 6a cd bd ed 04 8f 3d
       0.07750901 0.10093042 -0.10029992 0.069833614
000350 53 9f 13 bd f1 fe 52 bd 9d 55 97 3d b6 b3 34 bd
       -0.036040615 -0.051512662 0.07389376 -0.0441167
000360 bf d1 87 3c 78 f5 69 3d 50 8f 94 bc 2e a0 bc bd
       0.016579507 0.057118863 -0.018134743 -0.09210239
000370 29 6a 9a 3b ed b6 db 3c de 3b c2 bd 9e a4 76 3c
       0.0047123623 0.026820624 -0.09484075 0.015053896
000380 5f 6f 64 3d 0d db eb 3c 7c f3 78 3d f6 e1 9c 3d
       0.055770274 0.028790975 0.06077908 0.07660286
000390 09 b5 d9 3d ca 40 8f 3d 51 d8 81 bd d3 ae 3a bd
       0.10630233 0.069947794 -0.06340087 -0.04557688
0003a0 22 8f 3a 3d 1d 2f 82 bc 0b d4 dc bd db 91 fe bd
       0.04554666 -0.015891606 -0.107826315 -0.124301635
0003b0 4c c4 3a 3b 22 a3 f0 bd 84 0c 02 bd 8a 28 c6 3d
       0.002849835 -0.11749865 -0.031750217 0.09675701
0003c0 5a 62 95 bc e7 94 d6 bd 9c f2 f0 bd 46 eb 89 bd
       -0.018235374 -0.104776196 -0.11765024 -0.06734328
0003d0 b2 da bd 3d ec 6e a2 bd f8 bb 57 3d b0 ce fa bd
       0.092702284 -0.07931313 0.052669495 -0.12246454
0003e0 17 2d cf bd eb 57 3d 3d b4 9f 08 bd b4 e8 aa 3d
       -0.10116022 0.046226423 -0.03335543 0.08345166
0003f0 ca 08 aa bd 44 9b ff 3d 78 b4 d9 3c 1e bf b5 bd
       -0.08302458 0.124807864 0.026575312 -0.08874343

model.2.bias f4 [16]
000000 b6 74 5a 3d 13 5e c1 bc a2 2b 11 3d ea f7 2f 3c
       0.05333396 -0.023604428 0.035442002 0.01074026
000010 aa e6 b4 3d 4b 8c b8 bd ba 65 8d 3a 5f be e5 bb
       0.08833058 -0.09011134 0.0010787763 -0.0070112194
000020 20 e1 a7 bd 8e 70 73 3d 08 6d 30 3c 94 91 9a 3d
       -0.08197236 0.059433512 0.010768183 0.07547298
000030 59 52 e1 3d 07 78 4c bc f6 fa cd 3d 3f f4 25 bd
       0.11002035 -0.012479789 0.100576326 -0.040516134

model.4.weight f4 [8, 16]
000000 a5 fe 6c be 16 bf 46 be f0 68 76 bc 70 ce 22 3d
       -0.23144014 -0.19408831 -0.0150396675 0.039747655
000010 95 6b 44 bd 22 8b 61 3e 05 4c 62 3c 5c 05 ca bd
       -0.04795416 0.22025731 0.01381207 -0.098643035
000020 d0 2f 9a 3d f2 b6 b1 3b e4 bc 0f be 7f 21 4a be
       0.07528651 0.00542342 -0.140369 -0.1973934
000030 9d bf 45 3e ea 59 4d be e1 70 0c 3e e0 95 68 3e
       0.19311376 -0.2005383 0.13714935 0.22713423
000040 66 03 05 be 2f 6a 59 3e 00 38 81 be 28 fa 05 be
       -0.12989578 0.21231912 -0.25238037 -0.13083708
000050 cc 5c 3c 3e 0f f5 53 be 0c c2 1d 3e 65 66 3c bd
       0.18394774 -0.20698951 0.15406054 -0.04599609
000060 19 af 69 be 13 ab ee 3d 7c 8c 7e be 5c c8 62 be
       -0.228207 0.116537236 -0.24858278 -0.22146744
000070 9c 3b cc bd c2 69 12 3e 5c a4 60 3e ce ec 13 be
       -0.09972307 0.14298156 0.21937698 -0.14445803
000080 67 52 8f bd 2d 5e aa bd 37 c7 5b be 6e 58 03 be
       -0.06998139 -0.08318744 -0.21462713 -0.12826702
000090 22 fc 13 3e 8f b8 92 3d e5 89 12 be bc aa 54 be
       0.1445165 0.07164108 -0.14310415 -0.20768255
0000a0 1e d0 d6 bd 70 6f 7d be c2 a7 41 3e 0e 7d a0 bd
       -0.10488914 -0.24749541 0.18911651 -0.07836352
0000b0 68 d7 77 3d 43 c6 45 3d ad de 79 3c 1b 5f c1 3d
       0.06050816 0.04828478 0.015250844 0.09441968
0000c0 15 cb 4d 3e e8 f3 68 3e 40 e5 2f bd 6b 87 78 be
       0.20097001 0.22749293 -0.04294324 -0.24270408
0000d0 16 23 a9 3d d3 7d a0 bd 5a cd 25 bb d4 c3 65 3d
       0.08258645 -0.07836499 -0.00252994 0.05609496
0000e0 b9 e6 6c 3d a0 72 6f be 8e f8 2e bc 5e ba 59 3e
       0.05783722 -0.2338357 -0.010679377 0.212625
0000f0 ab dd 1c be a9 3d 1a be 88 31 1b be 3c 4b 73 be
       -0.15318935 -0.15062584 -0.15155613 -0.23759168
000100 19 39 54 3d 7d 4c 78 bd ee 68 11 3e cc fc 04 be
       0.051812265 -0.06061982 0.14200184 -0.1298706
000110 34 e8 66 3d 5e f9 58 3e 8a d9 39 3e 8a fb 0c 3e
       0.05637379 0.21188876 0.18149391 0.1376783
000120 f3 85 ec bc 86 5d f3 bc 64 a0 da bc d7 63 9e 3c
       -0.028872466 -0.029707681 -0.026687808 0.019334717
000130 0b 64 1e 3e 5e c9 50 be b9 3b fc 3d 10 13 58 3d
       0.15467851 -0.20389315 0.12316079 0.052752554
000140 00 36 1a 3e 5b 97 0d 3e 2b d7 20 be 32 30 57 3e
       0.15059662 0.13827269 -0.1570708 0.21014479
000150 e9 f7 29 be cc ac 0d bd 31 77 6b be e1 82 61 3e
       -0.16598476 -0.03458862 -0.22994687 0.22022583
000160 c6 02 36 3a 62 32 40 be e4 58 23 3e 24 75 0b 3e
       0.00069431623 -0.1876922 0.15951878 0.13618904
000170 78 57 32 3e cf 25 07 3e bc 9a 1a be 4b e3 0d be
       0.17416179 0.13198017 -0.15098089 -0.13856237
000180 a7 04 b3 bd de de 1f be 4e 2d 3d 3e d4 58 0b 3d
       -0.08741122 -0.15612361 0.18474314 0.03402026
000190 5a bc 40 3c 4c ec d1 3d 19 9d 06 be 53 ce 29 be
       0.0117636565 0.10250148 -0.13145865 -0.16582613
0001a0 9a ae eb 3d 48 4b 27 be 29 a4 85 3d ec 3d 30 3e
       0.11507912 -0.16337311 0.06525452 0.17211121
0001b0 18 0a 49 be 59 e8 98 bc b5 15 09 be 5d db 6e bd
       -0.19632757 -0.01866548 -0.13387187 -0.05831467
0001c0 06 1c 40 3e 34 31 60 be 57 ee 81 bd fc d5 00 3e
       0.1876069 -0.2189377 -0.06344288 0.12581629
0001d0 33 01 0f be e0 ab 63 3e bc 25 68 bc 23 24 8c bd
       -0.13965301 0.22233534 -0.014169153 -0.0684283
0001e0 2c e6 c6 bd fe ae 44 be 2b 2d 89 3d 91 e0 fb 3d
       -0.097118706 -0.19207379 0.06698068 0.12298692
0001f0 bf 5b 64 3d a9 08 41 3d f0 b1 3a 3e 86 37 14 be
       0.05575156 0.0471274 0.1823194 -0.14474306

model.4.bias f4 [8]
000000 65 3d 55 3d c6 a1 21 3e 7b 25 59 3e a9 e2 18 3e
       0.052060504 0.15784368 0.21205704 0.14930214
000010 8d 30 a9 bb 88 e8 c8 3b d2 a7 24 3e ef 9e 81 be
       -0.0051632584 0.0061312355 0.16079643 -0.2531657

model.6.weight f4 [1, 8]
000000 f4 59 72 be df 38 17 3e 64 c0 b5 3d 49 24 94 bc
       -0.23667127 0.14767788 0.08874586 -0.018083708
000010 e7 80 44 bc e4 ec 62 3a c4 50 a1 3e 6d b7 f4 bd
       -0.011993623 0.0008656515 0.31506932 -0.11949048
